cyj-racetrack-final/eval_files_racetrack/racetrack_wcsac/models/_actor.pth (torch, 310597 bytes, 6 tensors)

l1.weight f4 [256, 41]
0	0xbb0e8721	-0.0021748024
1	0xbe35e71a	-0.1776394
2	0xbe0e51c4	-0.13898379
3	0xbc19105f	-0.009342282
4	0xbe168e71	-0.14702775
5	0x3d289db0	0.041166008
6	0xbdad4ecb	-0.08462294
7	0x3cdcd7c4	0.026958354
8	0xbcfc2d3a	-0.030783284
9	0xbd92abbc	-0.07161662
10	0xbc221efd	-0.0098950835
11	0xbd3a65d2	-0.04550726
12	0x3b7ad64b	0.0038274701
13	0xbde99eeb	-0.11407264
14	0xbd844bf8	-0.064598024
15	0xbdfb6d97	-0.12276762
16	0xbdb04622	-0.08607127
17	0xbddfe93e	-0.10933159
18	0x3ce3da8a	0.027814168
19	0xbd7633cd	-0.060107995
20	0xbd6e3945	-0.058160085
21	0xbdc12c60	-0.09432292
22	0xbcd67180	-0.026177168
23	0xbd89f631	-0.067364104
24	0xbd4cfcab	-0.05004565
25	0xbd3b534d	-0.04573374
26	0x3d236186	0.039887927
27	0x3dadd8cd	0.08488617
28	0xbe1c54f3	-0.1526678
29	0x3dc6471c	0.09681532
30	0x3d32b4a5	0.043629307
31	0x3dc276bb	0.09495302
32	0x3d3b5763	0.045737635
33	0xbe11b5fe	-0.14229581
34	0xbe180e1c	-0.14849132
35	0xbd9a455e	-0.07532762
36	0x3e0c6de8	0.13713801
37	0xbcd51ab3	-0.026013708
38	0x3d88e155	0.06683604
39	0xbd94a296	-0.07257573
40	0x3e1ceb14	0.1532405
41	0xbddbea71	-0.107380755
42	0x3da35078	0.079743326
43	0xbd20fcf5	-0.03930374
44	0xbe4d92f3	-0.20075588
45	0xbeafd66f	-0.34343287
46	0xbe200f9d	-0.15630956
47	0xbcca16e8	-0.024669126
48	0xbdf0a591	-0.11750329
49	0xbed9214a	-0.4240821
50	0xbe7e9834	-0.24862748
51	0xbe1d9a08	-0.1539079
52	0xbc86dcc4	-0.016462691
53	0xbee52391	-0.44753698
54	0xbe83bf4e	-0.2573189
55	0x3d3b59e2	0.045740016
56	0xbe22a7ea	-0.15884367
57	0xbe11047c	-0.14161867
58	0xbea3a995	-0.31965318
59	0xbec87136	-0.39148873
60	0xbe228653	-0.15871553
61	0xbe6c2280	-0.23060036
62	0xbe861cbd	-0.261938
63	0xbdfeb701	-0.12437249
64	0xbdb34aa4	-0.08754471
65	0xbcd297c5	-0.025707135
66	0xbed34052	-0.4126001
67	0xbec605fa	-0.38676435
68	0xbdf2bc41	-0.11852313
69	0xbde2f7e7	-0.1108244
70	0x3dadff1c	0.08495924
71	0xbd16006a	-0.03662149
72	0x3e1ca4f8	0.15297306
73	0xbe918f87	-0.28429815
74	0xbe8fc037	-0.28076336
75	0xbe986c50	-0.29770136
76	0x3e84ff1b	0.2597588
77	0xbe2242c2	-0.15845779
78	0x3e276d31	0.16350247
79	0x3ecdb991	0.40180638
80	0x3dcbfe2e	0.0996059
81	0xbe5a4e40	-0.21318913
82	0x3c1b9bde	0.009497611
83	0xbcda03c8	-0.026613131
84	0xbd90b407	-0.070655875
85	0xbe81726f	-0.25282618
86	0xbe0e2aef	-0.13883565
87	0x3d137c3f	0.036007162
88	0xbdce74ee	-0.10080896
89	0x3beea95f	0.007283374
90	0xbcf8a103	-0.030350214
91	0xbe476fad	-0.19476195
92	0xbd3d8c19	-0.046276186
93	0xbd246899	-0.040138815
94	0xbe3d9167	-0.18512498
95	0xbe1e5e90	-0.1546576
96	0xbcc7e219	-0.024399804
97	0x3ce52a3f	0.027974246
98	0xbd880d86	-0.066432044
99	0xbe56b040	-0.20965672
100	0xbc9e768e	-0.01934364
101	0xbcecb631	-0.02889547
102	0x3db45347	0.088049464
103	0xbdc20fd4	-0.09475675
104	0xbdcebfd6	-0.100951836
105	0xbe9723d2	-0.29519516
106	0x3e1981dc	0.14990944
107	0xbd9447e1	-0.07240272
108	0x3cd907a1	0.026492896
109	0x3d04903a	0.032364108
110	0x3d4dbcf5	0.05022903
111	0x3deee8ff	0.11665534
112	0x3e17a3ec	0.14808625
113	0xbe3897cb	-0.18026654
114	0x3ce3f720	0.0278278
115	0xbd3bbd21	-0.045834664
116	0xbd49b2bc	-0.04924272
117	0x3e84b544	0.25919545
118	0x3d498d23	0.049206864
119	0x3d4bd776	0.049766026
120	0xbe837a2d	-0.2567915
121	0x3e3a5ded	0.18199892
122	0xbbd6e34d	-0.006557858
123	0x3fb63325	1.4234358
124	0x404538c9	3.081591
125	0xbff87335	-1.9410158
126	0xc0fd2ca0	-7.9116974
127	0x3e73cba4	0.23808151
128	0xbe9232dc	-0.28554428
129	0x4043437e	3.0509944
130	0x3f6a45dc	0.91512847
131	0xbf9e1a40	-1.2351761
132	0xbd46aa9e	-0.048502557
133	0x3fb5f285	1.4214636
134	0x3f84c1c9	1.0371639
135	0xbf48e0c7	-0.78467983
136	0xbf02a6f8	-0.51036024
137	0x3f0555b2	0.52083886
138	0x3eca0f42	0.39464766
139	0xbf2b8570	-0.67000484
140	0xbf8bf7f4	-1.0935044
141	0xbf9db92b	-1.2322134
142	0xbf5a13c4	-0.8518641
143	0xc06c598e	-3.692966
144	0xbf547d7b	-0.8300397
145	0xbff28da9	-1.8949481
146	0xbe536a57	-0.20646034
147	0xbe001041	-0.125062
148	0xbf4ce151	-0.80031306
149	0xbf4a5d67	-0.7904877
150	0xbd58a1cb	-0.052888673
151	0x3e1c3f72	0.15258577
152	0xbc93e7dc	-0.018054895
153	0xbbafd120	-0.005365506
154	0xc120a764	-10.040867
155	0x3fac2885	1.3449866
156	0x3f10385b	0.5633599
157	0xbf0dc277	-0.55374855
158	0xc020f400	-2.5148926
159	0xc01757c6	-2.3647323
160	0xbe02baea	-0.12766615
161	0xbf98ecc4	-1.1947255
162	0xbf54ffbe	-0.8320273
163	0x3f4d92b8	0.80302
164	0xbe8443ec	-0.2583307
165	0xbec4991d	-0.38398066
166	0xbe9a8bef	-0.30184886
167	0xbef5c389	-0.48000744
168	0xbec7cae0	-0.3902197
169	0xbf2eef32	-0.68333733
170	0xbe9c5834	-0.30536044
171	0xbe9e6d68	-0.30942845
172	0xbe9b1d1c	-0.30295646
173	0xbe69eee1	-0.22845031
174	0xbe985d8e	-0.29758877
175	0xbe9849d5	-0.2974383
176	0xbeb95106	-0.36194628
177	0xbebf08b5	-0.3731133
178	0xbf073c44	-0.52826333
179	0x3e2c5801	0.16830446
180	0xbe8e7532	-0.27823788
181	0xbf3bc369	-0.7334505
182	0x3bded578	0.00680035
183	0xbdffc392	-0.12488474
184	0x3e329e52	0.17443207
185	0x3e0cfa58	0.13767374
186	0xbea00406	-0.3125307
187	0xbe268ffa	-0.1626586
188	0xbe2f325d	-0.17109056
189	0xbf0d8b7d	-0.5529097
190	0xbed33e20	-0.41258335
191	0xbd763b71	-0.06011528
192	0xbd963a09	-0.07335288
193	0x3c10ebf0	0.008845314
194	0x3de788c9	0.113053866
195	0xbf00928f	-0.5022363
196	0x3d0ef967	0.034905817
197	0xbeb167fb	-0.34649643
198	0xbece77de	-0.40325826
199	0x3e839aba	0.25703984
200	0xbe78e3dd	-0.24305673
201	0xbe6f9ecb	-0.23400418
202	0xbe3567b8	-0.17715347
203	0xbdac7e42	-0.08422519
204	0xbe979b2c	-0.29610574
205	0xbe14dd4a	-0.1453754
206	0x3d00f7c2	0.03148628
207	0xbe93eba4	-0.28890717
208	0x3df59089	0.119904585
209	0x3c1e883b	0.009676035
210	0xbdfa6878	-0.12226957
211	0xbe2d3cea	-0.16917768
212	0xbe7f7f76	-0.24950966
213	0xbe6911e5	-0.22760732
214	0xbe21a07c	-0.15783876
215	0xbd9090a3	-0.07058837
216	0xbdfc1ba9	-0.12309963
217	0xbf131542	-0.5745431
218	0xbe40646b	-0.18788306
219	0xbe227f77	-0.15868936
220	0xbecfdeb7	-0.40599605
221	0xbe853161	-0.26014236
222	0xbe44e743	-0.19228844
223	0xbe97e38e	-0.29665798
224	0xbd597836	-0.053093158
225	0xbe10f3d9	-0.1415552
226	0xbd0fd57e	-0.03511571
227	0xbe293446	-0.16523847
228	0xbde66b51	-0.11250938
229	0x3d52b500	0.051442146
230	0xbefcb070	-0.4935336
231	0xbf154e9f	-0.5832309
232	0x3e1d75fc	0.15377039
233	0xbd08452e	-0.0332691
234	0xbd839852	-0.06425537
235	0x3d1bf06a	0.038071074
236	0xbcf9c558	-0.030489609
237	0x3e862656	0.26201123
238	0xbe5b27c2	-0.21401885
239	0xbe37e60c	-0.1795885
240	0xbea5d71f	-0.32390687
241	0xbde954cd	-0.113931276
242	0x3e3f0539	0.18654336
243	0xbd234bde	-0.039867274
244	0xbd1f89cd	-0.038949776
245	0xbcd25603	-0.02567578
246	0xbd181e62	-0.03713835
247	0xbe673d7a	-0.22582045
248	0xbe6e66ab	-0.23281352
249	0x3cfcc865	0.030857274
250	0x3d549731	0.051902
251	0xbe0d1db8	-0.13780868
252	0xbd97a417	-0.074043445
253	0xbcfbcc7f	-0.03073716
254	0xbe271bb5	-0.16319163
255	0xbe744f60	-0.23858404

l1.bias f4 [256]
0	0xbe2890e0	-0.16461515
1	0xbea6f2b1	-0.32607034
2	0x3d003d5b	0.031308513
3	0xbf55e148	-0.83546877
4	0xbef14ed1	-0.47130445
5	0xbedffcae	-0.43747467
6	0xbea50c11	-0.32235768
7	0xbe9f4d29	-0.31113556
8	0xbeb6727b	-0.35634217
9	0xbea9c3db	-0.33157238
10	0xbe7646ab	-0.24050395
11	0xbe6ce0d5	-0.23132642
12	0xbca35ebb	-0.019942632
13	0xbec1db13	-0.37862453
14	0xc00a5a84	-2.1617746
15	0xbe94df70	-0.2907672
16	0xbe1c5f2d	-0.15270682
17	0xbe8fd4c5	-0.28092018
18	0x3d85537b	0.06510063
19	0xbe399b62	-0.1812568
20	0xbe3ddac6	-0.18540487
21	0xbef6010d	-0.48047677
22	0xbeb02ce1	-0.3440924
23	0xbe8bb3ce	-0.27285618
24	0xbdcebf31	-0.100950606
25	0xbd29b757	-0.041434612
26	0xbdea9c4a	-0.11455591
27	0xbfb03f9b	-1.3769411
28	0xbdd04ab7	-0.10170501
29	0xc081bc04	-4.054201
30	0xbdd9c0cf	-0.106324784
31	0xbe28e6b6	-0.16494259
32	0xbdf6e4a1	-0.12055326
33	0xbed25519	-0.4108055
34	0xbe640509	-0.22267546
35	0xbe67279b	-0.22573702
36	0xbdfda189	-0.12384326
37	0xbe03c473	-0.12867908
38	0xbe99b656	-0.30021924
39	0xbda330e9	-0.07968313
40	0xbe4cf611	-0.20015742
41	0xbf040fc4	-0.51586556
42	0xbeb6d859	-0.35711935
43	0xc0418d15	-3.024236
44	0xbde55715	-0.1119825
45	0xbe20f924	-0.1572004
46	0xbddf7dba	-0.10912652
47	0xbe08e9ff	-0.13370512
48	0xbe931f15	-0.2873465
49	0xbe7f2a62	-0.24918512
50	0xbe9cdad9	-0.30635718
51	0xbe6c5146	-0.23077878
52	0xbe2ab5fc	-0.16670984
53	0xbdb0a565	-0.086252965
54	0x3959f008	0.00020784151
55	0xbe1b3fa7	-0.15161
56	0xbe32443e	-0.17408845
57	0xbeb86347	-0.36013243
58	0xc01a8819	-2.4145567
59	0xbf04d5ab	-0.5188853
60	0xbf80bd97	-1.0057858
61	0xbcfbb0a6	-0.030723881
62	0xbe7e1c95	-0.2481559
63	0xbd7abdd1	-0.06121618
64	0xbf090250	-0.53519154
65	0xc02e1e12	-2.7205853
66	0xbd0aa523	-0.033848893
67	0xbd8a6e3e	-0.06759308
68	0xbecbdd67	-0.39817354
69	0xbe15e5ac	-0.14638394
70	0xbe805d99	-0.2507141
71	0xbe000fb8	-0.12505996
72	0xbeb9bbf9	-0.36276224
73	0xbfd5fa92	-1.6717093
74	0xbe3dd96f	-0.18539976
75	0xbeed5aef	-0.4635844
76	0x3ca8b153	0.020592367
77	0xbe67a6e5	-0.22622259
78	0xbeed8be8	-0.46395802
79	0xbebb097e	-0.3653068
80	0xbe66c46e	-0.2253587
81	0xbd921dec	-0.071346134
82	0xbf2b2143	-0.6684763
83	0xbe9377f4	-0.28802454
84	0xbd10e1b3	-0.035371494
85	0xbdc1c085	-0.09460548
86	0xbf8c820b	-1.0977186
87	0xbea3537b	-0.31899628
88	0xbd9ccd28	-0.07656318
89	0xbed7ed1e	-0.42173094
90	0xbf49a645	-0.7876933
91	0x3d760cde	0.060070865
92	0xbe2650f9	-0.16241826
93	0x3d30b720	0.04314339
94	0x3d0d285a	0.03446231
95	0xbe51b642	-0.20479682
96	0xbe37c7ae	-0.17947266
97	0xbd61bd5f	-0.05511224
98	0xbf2b7ba5	-0.6698554
99	0xbe68b39b	-0.22724764
100	0xbf19c63d	-0.6006811
101	0xbd9b5607	-0.07584768
102	0xbe07c4f8	-0.13258731
103	0xbe08bed3	-0.13354044
104	0xbeb213d9	-0.34780768
105	0xbe9fa29c	-0.3117875
106	0x3d922333	0.0713562
107	0xbc9e3f18	-0.019317195
108	0xbe9c7873	-0.30560645
109	0xbda90ccc	-0.08254394
110	0xbea75502	-0.32682043
111	0xbe0fde37	-0.14049612
112	0xc0542f01	-3.315369
113	0xbe956c39	-0.2918413
114	0xbe4d8a71	-0.20072342
115	0xbdd5bf5f	-0.10436892
116	0xbeca15e2	-0.3946982
117	0xbec12f25	-0.3773128
118	0xc01ebea1	-2.480385
119	0xbd5c2910	-0.053750098
120	0xbe6e0cef	-0.23247121
121	0xbe5e6456	-0.21717963
122	0xbd9338a9	-0.071885414
123	0xbef00e0e	-0.46885723
124	0xc005a5e4	-2.0882502
125	0xbda35928	-0.079759896
126	0xbe6dc268	-0.23218691
127	0xbe31abdd	-0.17350717
128	0xbda74a6c	-0.08168492
129	0xbde1c97f	-0.110247605
130	0x3cd907d0	0.026492983
131	0xbe7efc43	-0.24900918
132	0xc00f354c	-2.237628
133	0xbea323d4	-0.31863272
134	0xbdc2cef5	-0.0951213
135	0xbef68eb5	-0.48155752
136	0xbd942a34	-0.07234612
137	0xbe42666b	-0.18984382
138	0xbe181d36	-0.14854893
139	0xbde6e1d0	-0.11273539
140	0xbe71b3f0	-0.23603797
141	0xbedc6e89	-0.43053082
142	0xbd8e80a6	-0.069581315
143	0xbeae564f	-0.34050223
144	0xc0478efc	-3.118102
145	0xbf39cdb3	-0.725795
146	0x39e7e74a	0.00044232077
147	0xbef5dfb3	-0.4802223
148	0xbfafa781	-1.3722993
149	0xbea4d2f3	-0.3219219
150	0xbe48eb12	-0.19620922
151	0xbbc05a38	-0.00587013
152	0xbf7bdeb4	-0.98386693
153	0xbe0c475f	-0.13699101
154	0xbf2c044b	-0.6719405
155	0xbf1a1824	-0.60193086
156	0x3cbeefb4	0.023307659
157	0xbdaa9129	-0.08328468
158	0xbbe283e4	-0.0069126952
159	0xbd2499f7	-0.040185895
160	0x3d96c46a	0.07361682
161	0xbedfb736	-0.43694466
162	0xbe695990	-0.22788072
163	0xbe15576c	-0.1458413
164	0xbe475274	-0.19465047
165	0xbe93ca70	-0.28865385
166	0xbe2a7926	-0.16647777
167	0xbd125424	-0.035724774
168	0xbe2d303a	-0.16912928
169	0xbea755cd	-0.32682648
170	0xbe1caead	-0.15301009
171	0xbfb7c016	-1.4355495
172	0xbe8d1055	-0.27551523
173	0xbce0d8e8	-0.027447179
174	0xbee622f8	-0.44948554
175	0xc018b4d9	-2.386038
176	0xbda93b7a	-0.082632974
177	0xbf21a6d8	-0.6314521
178	0xc0480b8d	-3.125705
179	0xbd8b41da	-0.067996696
180	0xbe689fac	-0.2271716
181	0x3d70d8f0	0.058800638
182	0x3c1fb511	0.009747759
183	0xbecff6ee	-0.4061808
184	0xbe9068ba	-0.282049
185	0xbe37c7b7	-0.17947279
186	0xbdc37e47	-0.0954557
187	0xbe803699	-0.25041655
188	0xbf807a41	-1.0037309
189	0xbfcfaf33	-1.6225342
190	0xbe994e65	-0.29942623
191	0xbef38b45	-0.47567192
192	0x3d215fe9	0.039398108
193	0xbe842a6d	-0.25813618
194	0xbe4ad2a4	-0.19806916
195	0xbe0392a4	-0.12848908
196	0xbde025e9	-0.10944731
197	0xbdf18ee2	-0.11794831
198	0xbec91d06	-0.39279956
199	0x3d1e59a9	0.038659725
200	0xbce429e2	-0.027852003
201	0x3d8c8d07	0.06862836
202	0xbddfd12d	-0.10928569
203	0xbe794872	-0.24344042
204	0xbdde96cf	-0.10868608
205	0xbe30d58d	-0.17268963
206	0xbed2e815	-0.4119269
207	0xbcab4915	-0.020908872
208	0x3c99de21	0.018782677
209	0xbff25e1f	-1.8934973
210	0xbf7a0f75	-0.97679836
211	0x3d032a94	0.032023028
212	0xbf829129	-1.0200549
213	0xbd2d4a78	-0.042307347
214	0xbec3ebd3	-0.38265857
215	0xbdc9b335	-0.09848634
216	0xbc662903	-0.014047864
217	0xbf57a4b7	-0.8423571
218	0xbe4c152a	-0.19929948
219	0xbf73c2c8	-0.9521909
220	0xbc1b4669	-0.009477236
221	0xbfb9b266	-1.4507568
222	0xbe6a2cad	-0.22868605
223	0xbdfb0dc4	-0.12258485
224	0xbdf001e2	-0.11719109
225	0xbea7cb48	-0.3277228
226	0xbe9581a1	-0.29200462
227	0xbea18864	-0.3154937
228	0x3c55b68e	0.013044013
229	0x3d42b2f5	0.047533948
230	0xbe985e2e	-0.29759353
231	0xbe710a1f	-0.23539017
232	0xbeed5df3	-0.4636074
233	0x3ed77773	0.4208332
234	0xbe009698	-0.12557447
235	0xbe82d87b	-0.25555786
236	0xbed72606	-0.42021197
237	0xbe2ef203	-0.17084508
238	0xbe25c7d6	-0.16189513
239	0xbeadf089	-0.33972576
240	0x3d2f2c25	0.04276671
241	0xbe55065b	-0.20803206
242	0xbea5b5d5	-0.3236529
243	0xbe7e40c6	-0.24829397
244	0xbe81c4f7	-0.25345585
245	0xbe46164c	-0.19344443
246	0xbef6dbdb	-0.4821461
247	0xbd3ee3b5	-0.046603877
248	0xbdaac161	-0.08337665
249	0xbebfd9df	-0.3747091
250	0xbea99658	-0.33122516
251	0xbd849205	-0.064731635
252	0xbead984f	-0.33905265
253	0xc01ad5e7	-2.4193056
254	0x3dbf4b42	0.09340526
255	0xbeacf52c	-0.337808

l2.weight f4 [256, 256]
0	0xbd77a621	-0.060461167
1	0xbddcf565	-0.10788993
2	0x3bf22500	0.0073896646
3	0xbec7997e	-0.38984293
4	0x3d2bece0	0.04197395
5	0xbd51261c	-0.051061735
6	0xbd1e9906	-0.038720153
7	0x3d473aa6	0.048639916
8	0xbce6bff4	-0.028167702
9	0x3b86e010	0.004116066
10	0x3ac193bd	0.0014768761
11	0x3b02919d	0.0019923218
12	0xbb804420	-0.003914371
13	0xbd71fd08	-0.0590792
14	0xbdd41e35	-0.10357324
15	0xbde5fce5	-0.112298764
16	0xbb755220	-0.0037432984
17	0xbd4719d0	-0.0486086
18	0xbad1bf01	-0.0016002358
19	0xbd5e388a	-0.05425314
20	0xbc9803e4	-0.018556543
21	0xbef4a7e8	-0.47784352
22	0xbda115c6	-0.07865481
23	0xbbb403cc	-0.0054936167
24	0x3c5b2270	0.01337491
25	0x3d75e436	0.060032092
26	0xbd31ab5a	-0.043376304
27	0xbc6739af	-0.014112874
28	0xbd61bb0c	-0.055110022
29	0xbda17b27	-0.078848176
30	0xbcc75466	-0.024332236
31	0xbd9bbebf	-0.07604741
32	0x3ca8b8e8	0.020595983
33	0xbdb88c94	-0.09011188
34	0x3c4b34e0	0.012402743
35	0xbd36da48	-0.044641763
36	0xbd0d25d8	-0.03445992
37	0xbd5c677f	-0.05380964
38	0x3d460dde	0.04835307
39	0xbdc9a00a	-0.09844978
40	0x3c29ad38	0.01035624
41	0x3d0b2602	0.033971794
42	0x3d6bd5d4	0.05757697
43	0xbed6d2b9	-0.41957644
44	0x3ce7a230	0.02827558
45	0x3d736536	0.059422694
46	0x3d2f310a	0.042771377
47	0xbd5cce94	-0.053907946
48	0xbc1489f8	-0.009066097
49	0xbbfb0670	-0.0076606795
50	0xbd7af447	-0.061268117
51	0xbd43b52c	-0.0477802
52	0xbd458609	-0.04822353
53	0x3d079a74	0.033106282
54	0xbdcf638c	-0.10126409
55	0xbd3484da	-0.04407201
56	0xbaf80f40	-0.0018925443
57	0xbde3acc6	-0.11116938
58	0xbd8070a7	-0.06271487
59	0xbdd7b68e	-0.105328664
60	0xbf1833d8	-0.5945411
61	0x3d36367a	0.044485547
62	0xbda47bba	-0.080314115
63	0xb9e0a100	-0.00042844564
64	0xbd5a949a	-0.053364374
65	0xbd9bfcef	-0.07616603
66	0xbd008eea	-0.031386293
67	0xbda01acd	-0.07817612
68	0xbc8ff8ac	-0.01757463
69	0xba210f00	-0.0006143898
70	0x3d092df0	0.033491075
71	0x3c17468a	0.009233126
72	0xbd329d04	-0.043606773
73	0xbf0b29f3	-0.54360884
74	0x3d411ec2	0.047148474
75	0xbd868c9f	-0.0656979
76	0xbd37a28a	-0.044832744
77	0x3c081210	0.008305088
78	0xbd30202e	-0.04299944
79	0x3d79f842	0.061027773
80	0x3cf09418	0.029367492
81	0x3d04acca	0.032391347
82	0xbd2f90fb	-0.042862874
83	0xbd23feb4	-0.040037826
84	0xbdccd73f	-0.100019924
85	0xbc4d4c78	-0.012530439
86	0xbc916e3a	-0.017752755
87	0x3d627540	0.0552876
88	0xbdd5e6d8	-0.104444206
89	0x3d6298aa	0.055321373
90	0xbe737906	-0.23776636
91	0x3bc146b0	0.005898319
92	0x3c976498	0.018480584
93	0x3b0fb1e0	0.002192609
94	0xbb828a60	-0.0039837807
95	0x3b88ad56	0.004171054
96	0xbdb218f4	-0.08696166
97	0xbaea47f0	-0.0017874222
98	0xbd99bfee	-0.07507311
99	0xbd8dacc3	-0.06917717
100	0xbe8205ea	-0.25395137
101	0xbd3ea984	-0.04654838
102	0xbe0e0ed7	-0.13872848
103	0xbd5449ba	-0.051828124
104	0xb92cfe00	-0.0001649782
105	0xbbe522c0	-0.006992668
106	0x3bef1fe5	0.0072975033
107	0xbdb55f28	-0.0885604
108	0xbda9bd2a	-0.08288033
109	0xbbfef430	-0.0077805743
110	0x3ca32a68	0.019917682
111	0xbdd487e7	-0.10377484
112	0xbf50a5e7	-0.81503147
113	0xbd428605	-0.047491092
114	0xbd08ebcc	-0.033428
115	0xbd743ec4	-0.05963017
116	0xba672e92	-0.000881889
117	0xbdc12c9f	-0.09432339
118	0x3d795677	0.060873475
119	0xbc9026e4	-0.01759667
120	0x3d330af6	0.043711625
121	0xbc842884	-0.0161326
122	0xbda80b45	-0.082052745
123	0xbd140967	-0.03614178
124	0xbe8b0e87	-0.2715952
125	0xbda366aa	-0.07978566
126	0x3cb35498	0.021890923
127	0xbd44b8d0	-0.048027813
128	0xbd6b0a4f	-0.057382878
129	0xbdd3c600	-0.103405
130	0xb8acdf2b	-8.2431674e-05
131	0xbd9bdb4e	-0.076101884
132	0xbef31ce6	-0.47482985
133	0x3cb3ec3c	0.021963231
134	0xbd9c9f98	-0.076476276
135	0xbd6c2fc2	-0.057662733
136	0xbec291b0	-0.38001776
137	0xbd07828c	-0.033083484
138	0x3c839aa0	0.016064942
139	0xbcb08d78	-0.021551833
140	0xbd5c4576	-0.05377718
141	0x3c0bd781	0.008535267
142	0xbd2528fc	-0.04032229
143	0xbd2bd6c6	-0.04195287
144	0xbebcc965	-0.36872402
145	0x3ccddfa4	0.025131054
146	0xbcd641c0	-0.026154399
147	0xbd579bc0	-0.05263877
148	0xbe7f3f67	-0.2492653
149	0x3cf57168	0.029961303
150	0xbd47357e	-0.048635
151	0xbd5a6c82	-0.053326137
152	0xbee80230	-0.4531417
153	0xbda289df	-0.07936453
154	0xbe3c9424	-0.18415886
155	0xbca12778	-0.01967214
156	0xbdabbf6a	-0.08386119
157	0x3c0f1137	0.008732132
158	0x3d45e3cc	0.048312947
159	0xbc0dddc8	-0.008658834
160	0xbd88ab5b	-0.066733085
161	0xbd74fd9e	-0.05981218
162	0xbd1abf14	-0.037779883
163	0xbc8ab624	-0.016932555
164	0xbc014b01	-0.0078914175
165	0xbc5b1880	-0.0133725405
166	0x3d79d050	0.060989678
167	0x3d78fcdc	0.06078802
168	0xbb60da80	-0.0034309924
169	0xbd2e4d63	-0.04255427
170	0x3bca5ce6	0.006175625
171	0xbc9159aa	-0.01774295
172	0xbca5c104	-0.020233639
173	0x3b61fee0	0.0034484193
174	0xbd14a57f	-0.036290642
175	0xbec10b15	-0.37703767
176	0x3d48a6d2	0.048987217
177	0xbc645ecf	-0.01393862
178	0xbec50a0d	-0.3848423
179	0x3d3553fa	0.04426954
180	0xbdbff51f	-0.09372925
181	0xbd439f0c	-0.0477591
182	0x3c877a18	0.016537711
183	0x3ca14294	0.019685067
184	0xbc46c947	-0.012132949
185	0x3d183356	0.037158333
186	0x3d2b4aca	0.04181937
187	0x3cac501c	0.021034293
188	0xbd8b5459	-0.068031974
189	0xbdb340b0	-0.087525725
190	0xbd4c9a38	-0.049951762
191	0xbd1c78f5	-0.03820129
192	0xbca21238	-0.019784078
193	0x3c7c8ce8	0.015414454
194	0xbac850c0	-0.0015282854
195	0x3d1df084	0.03855945
196	0xbd317d80	-0.043332577
197	0x3acee500	0.00157848
198	0xbdac5014	-0.08413711
199	0xbd44b9ba	-0.048028685
200	0xbcea3e44	-0.028594144
201	0x3b6637a6	0.0035128384
202	0xbc55a068	-0.013038732
203	0xbcfbde6c	-0.030745707
204	0x3b909402	0.004412175
205	0x3d205b02	0.03914929
206	0xbcf99680	-0.030467272
207	0xbdacec16	-0.08443467
208	0x3cbaca64	0.022801585
209	0xbef96bca	-0.4871505
210	0xbf59cbb2	-0.8507644
211	0xbd1a3d35	-0.037656028
212	0xbe50b979	-0.20383252
213	0xbdb3ef1d	-0.087858416
214	0xbd9f8e4f	-0.07790815
215	0xb9881d00	-0.00025961548
216	0x3d2f38a0	0.04277861
217	0xbd7bf176	-0.061509572
218	0xbdd3e373	-0.10346117
219	0xbf37ea02	-0.7184144
220	0x3b8a5ba0	0.0042223483
221	0xbf4e5636	-0.806003
222	0xbb907680	-0.0044086576
223	0x3c218518	0.009858392
224	0x3d28f83a	0.041252352
225	0xbc8e5758	-0.017375633
226	0xbdc891c6	-0.09793429
227	0xba2c34d8	-0.00065691536
228	0xbd3d7566	-0.046254538
229	0xbdd68fba	-0.104766324
230	0xbd334e57	-0.043775883
231	0xbd453bad	-0.048152614
232	0xbdd70cf7	-0.1050052
233	0xbed0818b	-0.40723833
234	0xbcc9059b	-0.024538806
235	0xbd6eece4	-0.058331385
236	0x3cd82324	0.026383944
237	0xbd12dba4	-0.035853997
238	0xbc065b90	-0.008200541
239	0x3d7ebb46	0.062190317
240	0xbd24f1d6	-0.040269695
241	0xbd105e94	-0.035246447
242	0xbdd0bcb7	-0.101922445
243	0xbd331a64	-0.04372634
244	0xbc8ebbba	-0.0174235
245	0xbd0e1ad3	-0.03469355
246	0xbddb720b	-0.10715111
247	0xbcfceb87	-0.030874027
248	0xbd5126d2	-0.051062413
249	0x3b85edfd	0.0040872083
250	0x3d7a9f12	0.061186858
251	0x3d19a7bc	0.03751348
252	0xbd57e2b9	-0.052706454
253	0xbe55abe2	-0.2086635
254	0xbcb6d31b	-0.02231746
255	0xbdb21f4d	-0.086973764

l2.bias f4 [256]
0	0xbf249b4b	-0.6429946
1	0xbec9791f	-0.3935022
2	0xbeb7f47b	-0.3592871
3	0xbf22b8c9	-0.6356321
4	0xbfbd08ae	-1.4768274
5	0xbfb17516	-1.3863857
6	0xbf4c75c7	-0.79867214
7	0xbd6bb208	-0.05754283
8	0xc00247f1	-2.035641
9	0xc008e1c2	-2.1387792
10	0xbed525ac	-0.41630304
11	0xbeb2f5e8	-0.34953237
12	0xbe94cf15	-0.2906424
13	0xbe9ee22f	-0.3103194
14	0xbea130db	-0.31482586
15	0xbf240499	-0.64069515
16	0xc0a3c351	-5.1175923
17	0xbeb7cea7	-0.3589985
18	0xbf2ec2ab	-0.6826579
19	0xbed10201	-0.4082184
20	0xbfb6f88f	-1.4294604
21	0xbd54cad7	-0.051951256
22	0xbffb2e65	-1.9623533
23	0xbf3be7ac	-0.7340038
24	0xbd800eec	-0.06252846
25	0xbfd11a00	-1.633606
26	0xbf05a140	-0.5219917
27	0xbfc2a45d	-1.520641
28	0xc0029746	-2.040483
29	0xbfb89b6c	-1.4422431
30	0xbefc1b0b	-0.49239382
31	0xc027c8d6	-2.621633
32	0xc05ce113	-3.4512374
33	0xbfb5b253	-1.4195045
34	0xbf19d53c	-0.60090995
35	0xbd6c263f	-0.05765366
36	0xbfc7e810	-1.5617695
37	0xbff24873	-1.892836
38	0xbf38f4b9	-0.7224842
39	0xbfa35f16	-1.2763393
40	0xbf4f37dc	-0.8094461
41	0xbd830941	-0.063982494
42	0xc0100b25	-2.2506802
43	0xbec7b3b4	-0.3900429
44	0xbfeb354e	-1.8375642
45	0xbfd4d312	-1.6626914
46	0xbf52db75	-0.82366115
47	0xbec2e5e8	-0.3806603
48	0xbfc6b420	-1.552372
49	0xbf32947b	-0.69757813
50	0xbe893386	-0.26797122
51	0xc00aa776	-2.166471
52	0xbfa5c6bc	-1.2951274
53	0xbdf39cdc	-0.11895153
54	0xc0ca7548	-6.3268166
55	0xc0098a44	-2.149064
56	0xbf3fdc18	-0.7494521
57	0xc04576f1	-3.0853846
58	0xbfafb025	-1.372563
59	0xbf53dbad	-0.82757074
60	0xbfb8abf3	-1.4427475
61	0xbecbf32c	-0.39833963
62	0xc01df1c9	-2.4678824
63	0xc07f1039	-3.9853652
64	0xbe7c9007	-0.24664317
65	0xbee21e4b	-0.44163737
66	0xbf98dc89	-1.1942302
67	0xbf82f96b	-1.0232366
68	0xbfd5cfd5	-1.670405
69	0xbe2bb6aa	-0.167689
70	0xbf38d77f	-0.7220382
71	0xbecc8c5c	-0.39950836
72	0xc086938c	-4.205511
73	0xc058946b	-3.3840587
74	0xbf3355c0	-0.7005272
75	0xbf9d2b82	-1.2278903
76	0xbee56c3e	-0.44809145
77	0xbf592f70	-0.8483801
78	0xc020cbc4	-2.5124369
79	0xc05ddaf0	-3.466488
80	0xbf1921e0	-0.59817314
81	0xbee12c09	-0.4397891
82	0xbf1d039c	-0.6133363
83	0xbedad369	-0.42739418
84	0xbd9cc3e0	-0.07654548
85	0xc08622b9	-4.1917386
86	0xbfcd4f06	-1.6039741
87	0xbf10eaaf	-0.566081
88	0xc00cf758	-2.2025967
89	0xbeea3cd9	-0.45749548
90	0xbf419170	-0.75612545
91	0xbf70da00	-0.9408264
92	0xbf8d68bb	-1.1047586
93	0x3f311d82	0.6918565
94	0xc0017e5c	-2.0233374
95	0xc0695ee2	-3.6464162
96	0xbfe541d9	-1.791072
97	0xbea0be64	-0.31395257
98	0xbf2b4933	-0.6690857
99	0xbfb92300	-1.4463806
100	0xbf91b52c	-1.1383414
101	0xbed80488	-0.42190957
102	0xbf4e4cbf	-0.80585855
103	0xc03d1312	-2.954289
104	0xbf3220a1	-0.6958104
105	0xbe8109fc	-0.2520293
106	0xbfd10574	-1.6329789
107	0xbdb1287b	-0.08650299
108	0xbe3cd857	-0.18441902
109	0x3f941563	1.1569027
110	0xbf6cd293	-0.9250881
111	0xbddc3d6b	-0.10753902
112	0xbe9ec805	-0.31011978
113	0xc090ee03	-4.529054
114	0xbef4a5b3	-0.47782668
115	0xbe7e2139	-0.24817361
116	0xc071dd6f	-3.7791402
117	0xbea03c38	-0.31295943
118	0xbeb277a8	-0.34856915
119	0xbfe0a24f	-1.7549533
120	0xc03a22d0	-2.9083748
121	0xbfced923	-1.6160015
122	0xbf7b81ce	-0.9824494
123	0xbfbb7f3f	-1.4648207
124	0xc0553a06	-3.3316665
125	0xbf2a9799	-0.6663757
126	0xbfaed943	-1.3660053
127	0xbf14ccb1	-0.58124834
128	0xbf1fb5b1	-0.62386614
129	0xbec1a2df	-0.37819573
130	0xbde495e5	-0.111614026
131	0xbfe1b8db	-1.7634538
132	0xbdc9bc11	-0.09850324
133	0xbf0a16f7	-0.5394129
134	0xbebd52fd	-0.36977378
135	0xbf9d95ab	-1.23113
136	0xbee4b559	-0.44669607
137	0xbfad5aaa	-1.3543293
138	0xbf506a0b	-0.8141181
139	0xbfbb9d04	-1.4657292
140	0xbecc4e15	-0.39903322
141	0xbfacfd67	-1.3514832
142	0xbff1b913	-1.8884605
143	0xbffe0878	-1.9846334
144	0xbf533963	-0.8250944
145	0xbf4c5ff2	-0.798339
146	0xbf10d638	-0.5657687
147	0xbfafffe0	-1.3749962
148	0xbf684472	-0.9072944
149	0xbf8cc7bd	-1.0998455
150	0xbee26ed4	-0.4422518
151	0xbfc3fe40	-1.5311966
152	0xbe970aac	-0.2950033
153	0xc008c366	-2.1369262
154	0xbf414a13	-0.75503653
155	0xbfaf5a24	-1.3699384
156	0xbec2d2c1	-0.38051417
157	0xbf29d11f	-0.6633472
158	0xc0018458	-2.0237026
159	0xbfa89f95	-1.31737
160	0xbea37c11	-0.31930593
161	0xc05654e1	-3.3489306
162	0xc05c6ceb	-3.4441478
163	0xbeb85b6a	-0.36007243
164	0xc0419419	-3.0246642
165	0xbf308d05	-0.6896518
166	0xbeb7a553	-0.3586832
167	0xbea4d862	-0.32196337
168	0xbed712e8	-0.42006612
169	0xbf0e7c10	-0.55658054
170	0xbf50e4ed	-0.81599313
171	0xbde93cab	-0.113885246
172	0xbf8c5c0e	-1.0965593
173	0xbf078396	-0.5293516
174	0xbfbbaad7	-1.4661511
175	0xbec77de8	-0.38963246
176	0xbf8940f2	-1.0722945
177	0xbedaf97a	-0.4276846
178	0xbfb6cb74	-1.4280839
179	0xbfd65a97	-1.6746396
180	0xbf932389	-1.149522
181	0xbf35d1dd	-0.7102335
182	0xbdc279e0	-0.09495902
183	0xbf317883	-0.6932451
184	0xbee89e96	-0.4543349
185	0xbf00583a	-0.50134623
186	0xbf1a6bb4	-0.6032059
187	0xbee57c48	-0.44821382
188	0xbfe7253e	-1.805824
189	0xbf7fc37f	-0.9990768
190	0xbee571db	-0.44813427
191	0xc032ddf7	-2.7947977
192	0xbfdd9eaa	-1.7314045
193	0xbf241c52	-0.64105713
194	0xbbdafd43	-0.006683023
195	0xbfa8053e	-1.31266
196	0xc0922a85	-4.5676904
197	0xbed790c8	-0.42102647
198	0xbeb84b97	-0.3599517
199	0xbdea0e99	-0.114285655
200	0xbee14ba5	-0.44003025
201	0xbee34be2	-0.44393831
202	0xbf78d7ce	-0.9720429
203	0xbf3ec4cc	-0.7451904
204	0xbfee1d15	-1.8602625
205	0xbee1b68d	-0.44084588
206	0xbf4efe80	-0.80857086
207	0xbf7105fb	-0.9414975
208	0xc0386a14	-2.8814745
209	0xbec2c015	-0.38037172
210	0xbec65c52	-0.3874231
211	0xbec8901f	-0.39172456
212	0xbfa6c52b	-1.3028921
213	0xbf275aaf	-0.6537275
214	0xbef6996e	-0.48163933
215	0xbfb1253d	-1.3839489
216	0xbed47b2b	-0.4150022
217	0xbf0af684	-0.54282403
218	0xbfb38e2d	-1.4027764
219	0xbf271cd0	-0.6527834
220	0xbf9d06ff	-1.226776
221	0xbeac7d84	-0.3368951
222	0xbf3b85c4	-0.73250985
223	0x3fa1855c	1.2618823
224	0xbf8322d1	-1.0245
225	0xbfea3b46	-1.8299339
226	0xbf56c5cb	-0.8389556
227	0xbfb944f2	-1.4474165
228	0xc0344161	-2.8164904
229	0xbec0a878	-0.3762853
230	0xbf6177cd	-0.88073426
231	0xbeee8b2d	-0.46590558
232	0xbf1494f3	-0.5803978
233	0xc05e6dfb	-3.4754627
234	0xbfb6220f	-1.4229144
235	0xbf93a428	-1.1534472
236	0xbfe0cf22	-1.7563212
237	0xbe2e1a2a	-0.17002168
238	0xbecb1a71	-0.3966861
239	0xbf2f29a7	-0.6842293
240	0xbfa77d64	-1.3085141
241	0xc08d5960	-4.41716
242	0xc00f942a	-2.2434182
243	0xbea5ba6f	-0.323688
244	0xbef134f3	-0.4711071
245	0xbeb48908	-0.35260797
246	0xc012f713	-2.2963302
247	0xbeb7f98a	-0.3593257
248	0xbf108861	-0.564581
249	0xbf11a801	-0.5689698
250	0xbf8432fb	-1.0328058
251	0xbec04e26	-0.37559623
252	0xbeb5c9bc	-0.35505474
253	0xc04b3b4a	-3.1754937
254	0xbf292f49	-0.66087776
255	0xbddab5a6	-0.10679178

mean_layer.weight f4 [1, 256]
0	0xbe1390a7	-0.14410649
1	0x3e81144d	0.252108
2	0x3e40c636	0.18825611
3	0xbe906905	-0.28205124
4	0x3e6e5b57	0.23277031
5	0x3e840217	0.25782844
6	0xbe214ff7	-0.1575316
7	0x3b363bba	0.0027806596
8	0xbe1e036e	-0.15430996
9	0xbeec92d6	-0.46205777
10	0x3e4f0b79	0.2021922
11	0xbe8947d3	-0.2681261
12	0xbd1d9c50	-0.03847915
13	0xbe92badc	-0.28658187
14	0x3e905536	0.2819001
15	0x3e75a022	0.23986867
16	0x3e4e9f7c	0.20178026
17	0x3e308a9a	0.17240372
18	0x3dc893c2	0.097938076
19	0x3ea64478	0.32474113
20	0x3ed09748	0.40740418
21	0xbc4de387	-0.012566454
22	0xbd7025f6	-0.058629952
23	0xbf1c3e14	-0.61032224
24	0x3b915d49	0.0044361693
25	0x3ec22435	0.3791825
26	0x3dbf8561	0.09351612
27	0xbec33f6b	-0.38134322
28	0x3e93de83	0.288807
29	0xbd6cf261	-0.057848338
30	0xbe66c417	-0.2253574
31	0x3ccee746	0.025256764
32	0x3e7a5de4	0.24449879
33	0xbe6df8d8	-0.23239458
34	0xbe8b2990	-0.27180147
35	0xbcb3879a	-0.021915246
36	0x3f0ba6a2	0.54551136
37	0xbcbc29c9	-0.022969143
38	0x3d722735	0.059119422
39	0x3dd1a1e7	0.102359585
40	0xbe56f318	-0.2099117
41	0x3c71644b	0.014733384
42	0xbe1dc8f4	-0.15408689
43	0xbd81a7b8	-0.06330818
44	0xbcb0b5c4	-0.021571048
45	0xbe622dca	-0.2208778
46	0xbca5781b	-0.020198872
47	0x3df7f45f	0.12107157
48	0x3e0ebc3c	0.13938993
49	0x3e096058	0.13415658
50	0x3c17d62e	0.009267373
51	0x3e13390f	0.14377235
52	0xbe54add9	-0.20769443
53	0xbd332098	-0.043732256
54	0x3db4728c	0.088109106
55	0x3f0272c1	0.5095635
56	0x3e8cc0ae	0.27490753
57	0xbe899817	-0.26873848
58	0xbe02a3f1	-0.12757851
59	0x3e8482a6	0.25880927
60	0x3eabb230	0.33534384
61	0xbe8853e1	-0.26626495
62	0x3f04a84b	0.51819295
63	0xbdfd9ac2	-0.12383033
64	0xbe76d7c9	-0.24105753
65	0xbe27a90d	-0.16373082
66	0xbdf802fb	-0.121099435
67	0xbe375371	-0.17902924
68	0x3ac2bb74	0.0014856891
69	0x3ec1beac	0.37840784
70	0x3e82c71d	0.25542536
71	0x3e9b4901	0.30329135
72	0x3e630cc5	0.2217284
73	0xbca58f33	-0.020209884
74	0x3e1a2e0e	0.15056631
75	0xbe4d5927	-0.2005354
76	0x3e9711d6	0.29505795
77	0x3e2f0860	0.17093039
78	0x3dcb9977	0.099413805
79	0x3c8f5e97	0.017501159
80	0xbe343d8a	-0.176016
81	0x3df19eff	0.11797904
82	0xbe418982	-0.18900111
83	0x3e4a9e30	0.19786906
84	0xbc8abd26	-0.016935896
85	0x3ed549fd	0.4165801
86	0x3e319b4f	0.17344402
87	0x3e4e6b38	0.20158088
88	0xbccbc247	-0.024872912
89	0xbe013c74	-0.12620717
90	0x3e0481ec	0.12940186
91	0xbd9dd3c4	-0.07706407
92	0x3e1be977	0.15225779
93	0x3d9c7791	0.07639993
94	0x3ecc673b	0.3992251
95	0x3e9dfc6c	0.30856645
96	0x3f08cd57	0.53438324
97	0xbdfb49d3	-0.1226994
98	0xbc093d22	-0.008376392
99	0x3e3973a2	0.18110517
100	0xbcb8e237	-0.022568805
101	0xbe7f6155	-0.24939473
102	0x3e1bdfd8	0.15222108
103	0x3e046598	0.1292938
104	0xbdf40fbe	-0.11917065
105	0x3ad38a5a	0.0016139254
106	0xbe304033	-0.1721199
107	0xbd2222b4	-0.039583877
108	0x3dac92eb	0.0842646
109	0xbe2e24ae	-0.1700618
110	0x3e144222	0.14478353
111	0x3cfe03f2	0.03100774
112	0x3d8fabdd	0.07015202
113	0x3dd6c46a	0.10486682
114	0x3e946b5d	0.28988162
115	0x3dafeacb	0.08589705
116	0x3f0efdc8	0.5585599
117	0xbdbca638	-0.09211391
118	0x3d9472a6	0.0724843
119	0xbe8b7118	-0.2723472
120	0xbe4ef18c	-0.2020933
121	0x3d923551	0.071390755
122	0xbda72cf5	-0.08162872
123	0xbe36d4b3	-0.17854576
124	0x3e282fd8	0.16424501
125	0x3e8726b0	0.26396704
126	0xbdcc24de	-0.09967969
127	0xbedbdadb	-0.4294041
128	0xbc540cf0	-0.012942538
129	0xbd5bf416	-0.053699575
130	0xbd81367b	-0.063092194
131	0x3e39f550	0.18159986
132	0x3d92dfca	0.071715906
133	0xbd324e2d	-0.043531585
134	0xbdff4c84	-0.12465766
135	0xbe22acf1	-0.15886284
136	0xbeba4fe7	-0.36389086
137	0xbe4f8940	-0.202672
138	0x3e7fdb4a	0.24985996
139	0xbec91d6f	-0.3928027
140	0xbe72c7d3	-0.2370904
141	0xbdd05e62	-0.10174252
142	0xbe117b31	-0.1420715
143	0x3f30c190	0.6904535
144	0x3e797d1b	0.2436413
145	0x3d14e72d	0.03635328
146	0x3e41e774	0.18935949
147	0x3e60e39b	0.21961825
148	0xbea06886	-0.31329745
149	0x3e65ad08	0.22429287
150	0xbea9044f	-0.330111
151	0xbf06d2cd	-0.52665406
152	0x3db04024	0.08605984
153	0x3de17147	0.11007934
154	0xbd584868	-0.052803427
155	0xbe8bdf66	-0.27318877
156	0x3d7dfa95	0.06200655
157	0xbe0f0ac8	-0.13968956
158	0x3f4ccec0	0.80002975
159	0x3e4e2f3e	0.20135209
160	0xbe856cff	-0.2605972
161	0x3f0ee482	0.55817425
162	0x3da94743	0.08265545
163	0xbce6a009	-0.028152483
164	0xbe776b67	-0.24162064
165	0x3e0dea3e	0.13858888
166	0xbe930633	-0.28715667
167	0x3e2a233f	0.16615008
168	0x3e3bcf46	0.18340787
169	0x3d785d87	0.06063607
170	0x3d91c6ea	0.07118018
171	0xbd1d5051	-0.038406674
172	0x3ea1eb9f	0.31625077
173	0x3e8578a4	0.26068604
174	0x3e86709c	0.2625779
175	0xbd45dc82	-0.048305996
176	0x3e065462	0.13118127
177	0x3e1a0f16	0.15044817
178	0x3efba0a5	0.49146
179	0x3e95fe67	0.29295656
180	0xbb0ac192	-0.0021172506
181	0x3e94e924	0.29084122
182	0xbc0a69dc	-0.00844809
183	0x3c8d1662	0.017222587
184	0xbc6759a3	-0.014120492
185	0xbc9adace	-0.018903162
186	0x3cf0fd30	0.029417604
187	0xbe3c3171	-0.18378235
188	0x3d9a4c37	0.07534068
189	0x3d8ff3fe	0.0702896
190	0xbd9c660d	-0.07636652
191	0xbe3c62d6	-0.18397078
192	0x3ee7f5c9	0.45304707
193	0x3d8e456a	0.069468334
194	0xbdfac19a	-0.12243958
195	0xbed75d92	-0.42063576
196	0xbe8b25b1	-0.27177194
197	0xbe9d57f2	-0.3073116
198	0x3ddc3771	0.10752762
199	0xbc09cf6a	-0.008411268
200	0x3e802320	0.25026798
201	0xbe8bcad5	-0.27303186
202	0x3d3e4b92	0.04645879
203	0x3e9d9ca8	0.30783582
204	0xbdc25f3a	-0.09490819
205	0xbe286e3d	-0.16448303
206	0x3e2436fd	0.16036601
207	0xbf00de99	-0.5033966
208	0xbe9ec2ed	-0.31008092
209	0x3d4a113e	0.04933285
210	0x3c823685	0.015895138
211	0x3dcb1f86	0.09918122
212	0x3d95cf93	0.07314982
213	0xbc143df8	-0.009047978
214	0xbe16f31e	-0.1474118
215	0x3de9cfbe	0.11416577
216	0x3d47d652	0.048788376
217	0xbe25c15d	-0.16187043
218	0x3f1cbd19	0.6122604
219	0xbe72b7f8	-0.23702991
220	0x3e50c2ef	0.20386861
221	0xbe490738	-0.1963166
222	0x3e8188b6	0.25299615
223	0xbee1021e	-0.43946928
224	0xbda4b3a8	-0.08042079
225	0x3e6545aa	0.22389856
226	0x3d2c46d3	0.04205973
227	0xbefd1d90	-0.49436617
228	0x3c945506	0.018106949
229	0x3e8e373b	0.27776513
230	0x3cdce9b5	0.026966909
231	0x3e842092	0.258061
232	0x3da414bd	0.08011768
233	0xbe9d2d8a	-0.30698806
234	0xbdafd643	-0.08585789
235	0x3edbcb4f	0.4292855
236	0xbd8c73d5	-0.06858031
237	0xbd197aca	-0.037470616
238	0x3e8eef6e	0.27917045
239	0xbe2ef307	-0.17084895
240	0x3e1f719a	0.1557068
241	0x3d3bc4cd	0.04584198
242	0xbe7c5416	-0.24641451
243	0xbd501b66	-0.05080738
244	0xbea1f842	-0.31634718
245	0xbd9d0789	-0.07667453
246	0xbea703d4	-0.32620108
247	0x3e91b8e9	0.28461388
248	0x3ed9119f	0.42396256
249	0x3e91a938	0.28449416
250	0xbc266de2	-0.010158034
251	0x3e48caf8	0.19608676
252	0xbe64f816	-0.22360262
253	0xbd506796	-0.050880037
254	0xbe707263	-0.23481135
255	0xbc0c6b37	-0.008570484

log_std_layer.weight f4 [1, 256]
0	0xbe0c7e61	-0.13720085
1	0xbe8ca9cb	-0.27473292
2	0xbe27b2c3	-0.16376786
3	0x3e0f4c3f	0.1399393
4	0xbe67f312	-0.22651318
5	0x3e20223b	0.15638058
6	0x3eb1cc5b	0.34726223
7	0xbd54089b	-0.05176602
8	0xbee7c236	-0.4526536
9	0xbd46f1ca	-0.04857043
10	0x3e81db9c	0.2536286
11	0x3e9396eb	0.2882608
12	0xbcabb4e6	-0.020960283
13	0xbe1f3266	-0.15546569
14	0x3efb2161	0.49048904
15	0x3e86c5e4	0.26322854
16	0x3f0351e1	0.5129681
17	0x3dabba81	0.08385182
18	0x3f1cb685	0.61216
19	0x3eeb78ba	0.45990545
20	0xbd2f5944	-0.04280974
21	0x389a7d7e	7.366667e-05
22	0x3e0985e1	0.13429977
23	0xbdbf4d5d	-0.09340928
24	0xbde21674	-0.11039439
25	0x3e57a5d9	0.2105936
26	0xbe914a1b	-0.2837685
27	0x3f0a7a41	0.54092795
28	0x3ea19103	0.31555948
29	0x3d9e27d3	0.077224396
30	0xbe95e835	-0.29278722
31	0x3f0c2a04	0.5475161
32	0xbe24312d	-0.16034384
33	0x3dea39bf	0.114367954
34	0x3ed25897	0.41083214
35	0xbc2ec616	-0.010667345
36	0xbf225ce3	-0.63422984
37	0x3d892d4f	0.06698095
38	0x3f046304	0.51713586
39	0x3f12058a	0.570397
40	0x3ef63988	0.48090768
41	0xbcbade3d	-0.02281105
42	0xbe272953	-0.16324358
43	0xbe27389c	-0.16330189
44	0xbe29488e	-0.16531584
45	0xbd27ee18	-0.04099855
46	0xbdd410b3	-0.103547476
47	0x3eb4f7a2	0.3534518
48	0xbe1e14f0	-0.15437675
49	0x3e0abbef	0.13548253
50	0x3c5a8326	0.013336932
51	0x3e1118e6	0.14169654
52	0x3d9a7ed0	0.07543719
53	0x3d8f2a58	0.06990498
54	0x3e8d966b	0.27653822
55	0xbc935f33	-0.01798973
56	0x3e8627c7	0.26202223
57	0x3e88e824	0.2673961
58	0x3d529744	0.05141379
59	0xbe355183	-0.17706876
60	0x3e2226d1	0.1583512
61	0xbeae1ffb	-0.34008774
62	0x3eee19ce	0.46504062
63	0x3f6db227	0.92849964
64	0xbd008c5e	-0.031383865
65	0x3e2d8605	0.16945656
66	0xbe5c02bf	-0.21485423
67	0x3eee87c8	0.46587968
68	0xbd10b973	-0.03533311
69	0x3dafe120	0.08587861
70	0x3f569696	0.83823526
71	0x3e88f1fd	0.26747122
72	0x3f584245	0.8447612
73	0x3e9709e5	0.29499736
74	0x3e8a3b2f	0.26998278
75	0xbc189c31	-0.009314583
76	0xbe7115eb	-0.23543517
77	0x3e6fe7a7	0.23428212
78	0x3bb8d50d	0.005640632
79	0x3f2aaa57	0.6666617
80	0xbd849e7c	-0.06475541
81	0x3d405321	0.046954278
82	0xbe3dda15	-0.18540223
83	0x3e38df6f	0.18053983
84	0x3ce29a38	0.027661428
85	0x3e7e913e	0.24860093
86	0x3ebf7ada	0.37398416
87	0xbdcc7a57	-0.09984272
88	0x3e516dc4	0.20452029
89	0x3e8540e9	0.26026085
90	0xbe9463f3	-0.28982505
91	0x3f0259cc	0.5091827
92	0x3aa08708	0.0012247274
93	0xbfde9d8a	-1.7391827
94	0x3f0afe87	0.5429463
95	0x3e51301e	0.20428512
96	0x3e2eaef8	0.17058933
97	0x3e3497b6	0.17635998
98	0xbe044327	-0.12916242
99	0x3ed36b14	0.41292632
100	0xbd1932be	-0.037401907
101	0xbe924daa	-0.28574878
102	0x3c7a43e7	0.015274978
103	0xbe76b4ba	-0.24092379
104	0x3e1d1f5b	0.15343992
105	0x3d48640d	0.04892354
106	0x3f3a0e03	0.7267763
107	0xbe885866	-0.26629943
108	0x3e2a49fb	0.16629784
109	0x3db95f3b	0.09051367
110	0x3e3e839d	0.18604894
111	0xbbaed8b1	-0.00533589
112	0xbd258779	-0.0404124
113	0x3f8376f5	1.0270678
114	0xbdb54ef5	-0.088529505
115	0x3d1bea91	0.038065497
116	0xbeed8ccc	-0.46396482
117	0xbe365c31	-0.17808606
118	0xbc1b6bb9	-0.009486132
119	0xbe070b38	-0.13187873
120	0x3e6ef9b4	0.23337442
121	0x3f159bdb	0.5844094
122	0x3dac029d	0.08398936
123	0x3ebdb409	0.37051418
124	0xbf24751b	-0.6424119
125	0x3e9e9e10	0.30979967
126	0xbe90b3ba	-0.2826212
127	0x3d49b888	0.04924825
128	0x3cc64c75	0.02420638
129	0x3f0b45d1	0.54403406
130	0xbe32c9ce	-0.17459795
131	0x3f4bfb3e	0.7968024
132	0xbd806f2c	-0.06271204
133	0xbe95b230	-0.2923751
134	0x3e9a7702	0.3016892
135	0x3e4603d8	0.19337404
136	0x3dc88aa8	0.097920716
137	0x3e0684d6	0.1313661
138	0x3f2bb4c3	0.67072695
139	0xbebdf372	-0.37099797
140	0x3d37aed0	0.04484445
141	0xbeacc898	-0.3374679
142	0xbd0a24e0	-0.033726573
143	0xbcfbb3a1	-0.030725302
144	0x3e811c51	0.25216916
145	0xbe3aa510	-0.18227029
146	0x3f6658d6	0.899793
147	0xbd4655a1	-0.048421506
148	0xbec4c461	-0.38431075
149	0x3ed67483	0.41885766
150	0xbe8f2ad5	-0.27962366
151	0x3e7d08c2	0.24710372
152	0xb9f93ed7	-0.000475398
153	0x3ee06532	0.43827206
154	0xbf353bdb	-0.7079446
155	0xbee14ee2	-0.44005495
156	0xbc49f0d9	-0.012325489
157	0xbda25747	-0.07926803
158	0x3f3510cf	0.7072877
159	0xbe2a1d8e	-0.16612837
160	0xbe195a82	-0.14975932
161	0xbe3a1d66	-0.18175277
162	0x3f8ae4d0	1.0851078
163	0x3ceba3fc	0.028764717
164	0xba93bb89	-0.00112711
165	0xbdeaaed1	-0.11459125
166	0x3e928719	0.28618696
167	0xbe6fcc4d	-0.23417778
168	0x3d90ba60	0.07066798
169	0xbc7525b8	-0.014962606
170	0xbeaa0fbe	-0.33215135
171	0x3cb3c0f0	0.021942586
172	0x3e91f39f	0.2850618
173	0x3df8b365	0.12143592
174	0x3e3b7c91	0.18309237
175	0x3cbc4e06	0.022986423
176	0xbe869569	-0.26285866
177	0x3e3c8c4d	0.18412896
178	0xbbfeffa9	-0.007781942
179	0xbcc0fc8c	-0.023557924
180	0x3eb45c4d	0.3522667
181	0x3eb34a4a	0.35017616
182	0xc07b374e	-3.9252505
183	0xbdfd3ff5	-0.123657145
184	0x3f089326	0.5334953
185	0xbd76caf9	-0.060252164
186	0x3d6648bd	0.056221712
187	0xbdd2540d	-0.10269938
188	0x3e10219f	0.14075325
189	0x3f1184d4	0.56843305
190	0x3dc7a065	0.0974739
191	0x3f253d75	0.645469
192	0xbc898911	-0.016788991
193	0xbe6e33dc	-0.2326197
194	0x4029d8ef	2.6538656
195	0x3f040589	0.51570946
196	0x3e988f20	0.29796696
197	0xbe6be670	-0.23037124
198	0x3e88848a	0.2666362
199	0xbe05d491	-0.13069369
200	0x3e89d9eb	0.2692407
201	0xbe9018cb	-0.28143916
202	0x3de5c01a	0.11218281
203	0xbe04ef33	-0.12981872
204	0x3eb607ff	0.35552976
205	0x3e1fc5ae	0.15602753
206	0xbdd6ee1f	-0.10494637
207	0xbd2db3f0	-0.04240793
208	0xbe8afaa8	-0.2714436
209	0xbd38a788	-0.045081645
210	0xbd18be2a	-0.03729073
211	0xbe5067e7	-0.20352136
212	0xbec0a411	-0.37625173
213	0xbe84dfac	-0.25951898
214	0xbd19e0d3	-0.037567925
215	0x3f230396	0.63677347
216	0x3ec11f07	0.37718984
217	0xbbda8d2e	-0.006669662
218	0x3e45299f	0.19254158
219	0xbdf84874	-0.12123194
220	0x3e1af370	0.15131927
221	0x3e33955d	0.17537446
222	0xbe673938	-0.22580421
223	0x3e9652a3	0.29359922
224	0x3efabf90	0.48974276
225	0xbe1a4d79	-0.15068616
226	0x3e222f93	0.1583846
227	0x3de71ef7	0.11285203
228	0x3e9759ae	0.29560608
229	0x3e8ca92c	0.27472818
230	0xbe1c091e	-0.15237853
231	0xbeaf60f3	-0.34253654
232	0x3f0ca4e7	0.5493912
233	0x3e94b21e	0.29042143
234	0x3e757a02	0.23972324
235	0xbf545fac	-0.82958484
236	0xbea76ca7	-0.32700083
237	0x3d285e9a	0.041105844
238	0xbe162fdc	-0.14666694
239	0xbf035187	-0.51296276
240	0x3e585764	0.21127087
241	0x3d98224e	0.07428418
242	0xbd9e6978	-0.0773496
243	0x3caa0e57	0.02075879
244	0xbdee0fa5	-0.11624078
245	0xbd82e108	-0.063905776
246	0x3dd7c595	0.10535733
247	0x3d3b32e9	0.04570285
248	0xbe04f265	-0.12983091
249	0x3e03770f	0.12838386
250	0x3ebe895f	0.3721418
251	0x3cd553da	0.02604096
252	0x3e9eb1c1	0.3099499
253	0x3f5e24f9	0.86775166
254	0xbe5da84b	-0.2164623
255	0xbdc7cdca	-0.09756048
