cyj-racetrack-final/eval_files_racetrack/racetrack_wcsac/models/_critic.pth (torch, 619777 bytes, 10 tensors)

l1.weight f4 [256, 42]
000000 eb 04 e0 bd f3 7c 14 be bb 16 ed bc ea 98 12 3e
       -0.10938438 -0.1450079 -0.028941503 0.14316145
000010 87 03 c6 bd 4d d3 88 3d 22 2a 3b be 2c 14 05 be
       -0.096686415 0.066809274 -0.18277791 -0.12995976
000020 25 ee 9c bd 38 ff bc bc e6 c4 14 bd d4 c8 5d 3d
       -0.0766261 -0.023070917 -0.03632059 0.054146603
000030 9d fe cf bc 9e 25 09 be 58 0c c3 bd 3a f4 d3 bd
       -0.025389964 -0.13393256 -0.09523839 -0.10349317
000040 7d cd 87 3d 85 33 11 3d 7b 73 41 be 63 8a d0 bd
       0.06630991 0.035449523 -0.18891709 -0.10182645
000050 a4 48 c0 bd 9a 2c df bd ac 2a 9f be bb 5c d9 be
       -0.09388855 -0.10897179 -0.31087244 -0.4245356
000060 fb 5f ff 3c 9b ec 62 be 6d 66 85 3d 24 83 07 3e
       0.031173697 -0.2216057 0.06513677 0.1323362
000070 ab e2 bf bc 09 08 f7 bc 9a fb 0f 3d 3b 4d 6d bd
       -0.023423513 -0.030155199 0.035152055 -0.05793498
000080 bd 70 0b be 50 a8 69 3c 1f f9 a0 3d 63 69 c6 3d
       -0.13617225 0.01426132 0.07860016 0.0968807
000090 9b bb f7 3c f6 90 0d 3e 69 85 fe 3d 20 f3 96 3d
       0.030240824 0.1382483 0.1242779 0.07370591
0000a0 f6 51 87 3d dc 7f 60 3d 3d 86 9a be e4 bc e9 bd
       0.0660743 0.054809436 -0.3018054 -0.11412981
0000b0 0f c2 60 bf 6a c0 38 be 5b 2a 5e be ea 18 0a bf
       -0.8779611 -0.1804215 -0.21695845 -0.53944266
0000c0 ac b7 a5 be 50 33 e4 be 14 25 0e bf 93 ae e1 be
       -0.32366693 -0.44570398 -0.55525327 -0.44078502
0000d0 a6 91 b8 be 64 cb 94 be 8b 5c f2 be d2 60 0c bf
       -0.3604862 -0.29061425 -0.4733623 -0.54835236
0000e0 72 c2 9d be e6 1a 19 be 4d b6 40 be 06 7d 8a be
       -0.30812413 -0.14951667 -0.18819542 -0.2704851
0000f0 de d5 0a 3e 94 2b 5b 3e 70 06 fc be 83 1a 8b be
       0.13558146 0.21403342 -0.4922366 -0.27168664
000100 f6 d7 c3 be f4 15 a2 bd 73 0e 11 3f d9 e4 99 be
       -0.38250703 -0.079143435 0.5666267 -0.3005741
000110 08 5f f2 be 27 47 b3 bd d5 c9 c9 3d cc 0f d5 bd
       -0.47338128 -0.087538056 0.098529495 -0.10403404
000120 b6 2c 82 3d d9 a8 e5 bd 9c 6e 07 bf 8b e6 34 bf
       0.06356184 -0.11213846 -0.5290315 -0.7066428
000130 54 64 30 bf b7 e7 c9 3e 22 43 b7 3e 68 cc ed 3d
       -0.6890309 0.39434597 0.35793406 0.11611253
000140 7b fd 26 bc cc 00 10 3f 90 84 dc 3d 77 a8 b5 3e
       -0.01019227 0.56251216 0.10767472 0.3548009
000150 69 13 c6 bd bf 39 bb 3d e5 e2 4a bc cc 10 12 bc
       -0.09671671 0.091418736 -0.012383197 -0.0089151375
000160 7c 4d fd bc b5 76 55 3d 3e 0a 4d bd 08 9b 2d bd
       -0.030920736 0.05211516 -0.050058596 -0.042384177
000170 ff c3 0b bd 05 3a 42 bc e6 72 17 be 4f a5 02 be
       -0.034122463 -0.011854653 -0.14789924 -0.12758373
000180 c3 ad a4 3d 49 34 da 3c 1c 07 4c 3d 67 a6 2c 3d
       0.08040955 0.02663626 0.049811468 0.04215088
000190 0b 80 43 3d cc 8f bf bd ba e1 e8 bb 79 5e 15 3d
       0.047729533 -0.09353599 -0.007106987 0.03646705
0001a0 7a 90 13 be 7c 06 18 be 09 5f 1e bd 59 88 0e 3d
       -0.14410582 -0.14846224 -0.03866485 0.034798
0001b0 cf 9a a4 bd 6e 5a 04 be 68 d2 03 be 40 77 26 bd
       -0.0803734 -0.12925121 -0.12873232 -0.04064107
0001c0 58 cd 52 3d d0 8f f7 bd da 1d 09 3d 51 9e db 3d
       0.051465362 -0.12087977 0.033475734 0.10723556
0001d0 c5 97 c8 bc a4 df 0d be 75 51 db bd 52 aa 10 3e
       -0.024486432 -0.13854843 -0.10708896 0.14127472
0001e0 57 b6 c3 3d 43 cc 64 3d f1 42 da bc 42 d9 aa 3d
       0.09556263 0.05585886 -0.026643248 0.0834222
0001f0 6b 8d 3b bc 4e 60 c4 3c 08 b0 d0 bd 5d e6 b7 be
       -0.011447291 0.023971703 -0.10189825 -0.3591794
000200 46 b5 92 bc a4 98 99 3c 95 9c 5d be 6c 1f 4d bd
       -0.017908704 0.018749543 -0.21641763 -0.050078794
000210 20 44 2f be 7f 45 ba bd 3c ea 3a be dc bb 43 bd
       -0.17115831 -0.090952866 -0.18253416 -0.04778658
000220 97 e2 94 bc e0 4f 89 bd 1e 2f d0 bd 62 80 15 3d
       -0.018174453 -0.06704688 -0.10165237 0.03649939
000230 58 b1 a9 bd a0 3f 12 be f5 ed 87 be be 5a 8f be
       -0.08285779 -0.14282084 -0.26548734 -0.27998918
000240 1c 36 cb be 71 f8 f6 3a b3 40 b4 bd 74 4f 01 3e
       -0.3968972 0.0018842352 -0.08801403 0.12627965
000250 0d 3c c5 be 91 67 cb 3d 0f 34 01 3e 2c ca 82 be
       -0.38522378 0.09931863 0.12617515 -0.2554487
000260 29 cf d6 bb 39 c5 8a 3c a8 7d e1 3c 6e ce 12 be
       -0.006555457 0.016939746 0.027525738 -0.14336559
000270 d6 5e 19 bd a4 31 07 bd d4 8f 05 3e 89 4b 5e be
       -0.03744396 -0.033006325 0.13043147 -0.21708502
000280 58 68 78 be e7 82 db 3d 55 46 2b 3e 3b 91 4a 3e
       -0.24258554 0.10718327 0.16726048 0.19781964
000290 38 c6 68 be 3c 4b 82 3d 67 fc 28 3d 2d c6 45 bd
       -0.22731864 0.06362006 0.041256335 -0.0482847
0002a0 28 45 29 bd e0 80 eb 3d 1f 2d 5d bd e1 c0 53 bd
       -0.04132572 0.1149919 -0.05399811 -0.051697616
0002b0 43 66 bf be 71 9e 5b bf d9 98 55 bf 0f b2 17 bf
       -0.37382707 -0.8578864 -0.8343635 -0.5925607
0002c0 91 ce 18 bf 61 f7 30 bf 82 1e c5 be e1 84 c8 be
       -0.59690195 -0.6912747 -0.38499838 -0.3916388
0002d0 d2 35 17 bf 97 db 85 bd 6e d9 de bd 89 7b 95 be
       -0.590665 -0.06536024 -0.10881315 -0.29195812
0002e0 04 de 0a be 9f d6 8e be cf 17 b5 3d 24 1f 05 3f
       -0.13561255 -0.27898118 0.08842432 0.5200064
0002f0 af 2c 8e 3d 8d fb 99 be 65 43 d9 be ef 2b 02 bf
       0.069421165 -0.3007473 -0.4243423 -0.5084829
000300 bf b4 85 bd 80 e5 0b bf ad e8 11 bf cb 38 43 bd
       -0.06528615 -0.54647064 -0.5699566 -0.047661584
000310 d2 45 2b bd 6b 5c 97 3d 2c 65 4e bd 24 f7 a6 be
       -0.041814633 0.07390674 -0.050389454 -0.32610428
000320 d1 a6 17 bd 5c 7b ad be 87 5c 0e bf ea 7b 0e 3e
       -0.037024323 -0.33883178 -0.55609936 0.13914457
000330 f9 98 d3 b9 a7 d6 f9 3e 58 7f 3e 3e f6 f8 45 be
       -0.0004035903 0.4879658 0.18603265 -0.19333252
000340 f9 c4 d3 3d e3 e4 80 3d 2c 05 21 be 03 4b cc be
       0.10340304 0.06293657 -0.15724629 -0.3990098
000350 c4 9c ab bd bb ac d4 be 55 c6 df be a9 f4 d7 be
       -0.0837951 -0.41538033 -0.43706003 -0.42178848
000360 79 e6 bd be 25 7f 62 be 7d 64 03 be 0c e0 1b be
       -0.370899 -0.22118814 -0.12831302 -0.15222186
000370 e5 de 37 be e5 6e df be 99 b6 d8 be 89 56 a7 be
       -0.17956121 -0.43639293 -0.4232681 -0.3268321
000380 87 5a 99 3c d3 b2 10 bf e5 c3 4e be 50 71 f3 be
       0.018719925 -0.56522864 -0.20191915 -0.47547388
000390 2b 2a b0 be e3 bd 04 bf 4e 27 b2 3b 11 34 b5 be
       -0.34407172 -0.51852244 0.0054368144 -0.35391286
0003a0 7c 9e d1 be f5 85 84 be 62 b7 6e be ce 1e be be
       -0.40941226 -0.2588345 -0.23312142 -0.37132877
0003b0 ea cd 03 bf d9 d6 13 3e a1 49 e8 bd b4 12 c9 3d
       -0.51486075 0.14437427 -0.113421686 0.098180205
0003c0 17 f6 ac 3d 08 b7 20 bc 59 43 0a be 25 ae 7f be
       0.084453754 -0.009809263 -0.13502254 -0.24968775
0003d0 c7 14 e8 be 52 ec 52 3d 9f be c9 3e 2a 6e ac 3e
       -0.45328352 0.051494904 0.39403245 0.33677799
0003e0 a9 96 ba 3e 32 a3 f3 3d f6 13 59 3e 5a 6f 80 3e
       0.3644307 0.118963614 0.2119902 0.25084955
0003f0 92 1b 5b be 72 2b 43 3d ef ac 16 3e c9 d3 00 bc
       -0.21397236 0.047648855 0.14714406 -0.0078629935

l1.bias f4 [256]
000000 f7 6d 4c 3c cd 47 e2 be c4 a5 e2 3c 32 0a 95 bd
       0.01247739 -0.44195405 0.027666934 -0.07277335
000010 60 15 d6 be 1c a2 ff be 51 e0 d8 3b 46 dd 74 c0
       -0.41813183 -0.49928367 0.0066185375 -3.8260055
000020 8d 30 19 be 2d 4a cb be 68 33 12 3d 6c ad 94 be
       -0.14959927 -0.3970503 0.035693556 -0.2903856
000030 a2 fc 09 bf 6a 75 57 be f2 23 92 bd 92 c2 26 be
       -0.5390111 -0.21040884 -0.07135762 -0.1628516
000040 6c 90 50 be fb 47 e4 bf 05 e4 a1 be 0d 0c a4 bd
       -0.20367593 -1.7834467 -0.31619278 -0.08010111
000050 e0 db 9b be 4f 5b 86 be 80 04 81 be 38 51 04 3c
       -0.3044119 -0.26241538 -0.25198746 0.008076005
000060 96 90 e4 be 28 9b 31 bc ce 95 d3 be 3b 49 6a be
       -0.4464156 -0.010840215 -0.4132523 -0.22879498
000070 d5 32 e7 bd 25 76 6e be 25 d8 20 be 3a 7d 9b be
       -0.11288992 -0.23287256 -0.15707453 -0.30368978
000080 87 e1 9b bd f8 2d b4 be bd ea cc bf e4 1f 92 be
       -0.07611375 -0.3519132 -1.6009136 -0.28539956
000090 97 61 5e bf 60 76 3a 3d 39 19 a7 bd d5 4c 1e be
       -0.8686766 0.045523047 -0.08159108 -0.15458997
0000a0 d5 af df be aa 95 86 be c7 90 b3 bd cb 25 e2 be
       -0.43688837 -0.2628606 -0.087678485 -0.4416946
0000b0 c2 29 cd be c5 ad 29 be b3 94 62 be d9 cc b0 be
       -0.4007092 -0.16570194 -0.22127037 -0.34531286
0000c0 97 9b 1c be be 72 be be fc e5 95 bf 35 9b 9a 3e
       -0.15293728 -0.37196916 -1.1710811 0.3019654
0000d0 76 88 3e be fb 33 e7 be 2d 3d 59 3b 95 4a 8e be
       -0.18606743 -0.45156845 0.0033148036 -0.27791277
0000e0 60 4f 90 be bd 4b 34 be 4f b3 97 be 5f 60 1c bf
       -0.28185558 -0.17607017 -0.2962899 -0.6108455
0000f0 d9 0b a2 bd 10 47 d6 be 61 e3 38 3f bf c2 7b be
       -0.07912416 -0.4185109 0.7222195 -0.24586008
000100 ce f3 d1 bd 26 24 a5 bd fe 97 78 bf a9 68 d0 be
       -0.1025158 -0.080635354 -0.9710692 -0.4070485
000110 3b ff 45 be b3 84 2e be fd cd df be ea 22 21 c0
       -0.19335644 -0.17042808 -0.43711844 -2.517756
000120 7a 11 b1 bb 7b ec 73 be fa 52 e4 bd 1c c7 57 be
       -0.0054036947 -0.23820679 -0.11148639 -0.21072048
000130 3a 2f 57 be 7d 3c ee be 8c 56 5c be 82 6a dd bd
       -0.21014109 -0.46530524 -0.2151739 -0.108113304
000140 0f 58 8f bd 0b 6e 64 be 09 2f 52 be 1b 83 c2 be
       -0.06999218 -0.22307603 -0.20525755 -0.3799065
000150 d0 7e 37 c0 3b ef 8c be c6 33 e8 bd 26 07 56 3d
       -2.867115 -0.27526268 -0.11338 0.05225291
000160 a7 75 79 be 20 a4 4a be c0 f3 5b c0 49 30 e9 be
       -0.24361287 -0.19789171 -3.4367523 -0.4554465
000170 98 b0 e3 bd 1d 0f fe bc 8f 1d 61 be 67 31 94 be
       -0.11117667 -0.031013066 -0.21983932 -0.2894394
000180 00 09 91 be 4d 3f 82 be c5 19 f3 bc 5e bf 70 be
       -0.2832718 -0.2543892 -0.029675374 -0.23510501
000190 6b a9 13 be b1 e2 37 be c8 95 82 3d ec 8c fe bd
       -0.14420097 -0.1795757 0.06376225 -0.124292225
0001a0 76 04 8b be fe d2 3e be 56 2c 04 c0 52 99 9a be
       -0.2715184 -0.18635175 -2.065206 -0.301951
0001b0 cc 9d f3 be 02 f3 b7 bd 62 3d b6 be b4 d5 dc bf
       -0.47581327 -0.08981897 -0.35593706 -1.7252717
0001c0 86 ff 7b 3d b8 5c 03 bf f7 14 5f be 98 9e 0c bf
       0.061522983 -0.5131335 -0.21785341 -0.54929495
0001d0 4b 08 94 bd 91 52 2d be 2f 5b 9f be a7 f6 0c c0
       -0.07228144 -0.16926028 -0.31124255 -2.2025545
0001e0 6e e2 ad 3b 76 38 11 bc 12 b0 a6 be 63 94 68 c0
       0.0053065335 -0.008863559 -0.32556206 -3.6340568
0001f0 e0 e5 95 be 0e 10 63 3d fc 03 ab be b1 70 07 be
       -0.29276943 0.055435233 -0.33401477 -0.13226582
000200 75 5d 77 be 2e 2e 9e be 28 d1 2f 3d a6 97 82 be
       -0.24156745 -0.30894607 0.042924076 -0.25506324
000210 f2 df 72 be cb fc b8 be 74 28 06 c0 06 70 a2 be
       -0.23718241 -0.36130366 -2.096219 -0.31726092
000220 79 1b 1d be 7e 1e 4d be c3 22 e1 bd e3 a3 1b be
       -0.15342511 -0.20031163 -0.109929584 -0.15199237
000230 a5 ad b4 be 70 5f ac be 60 2f 13 be e5 16 f4 bf
       -0.3528873 -0.33666563 -0.14373541 -1.9069487
000240 67 16 df bd 18 13 cc bf 7b ce bf be bd 33 cd bc
       -0.10892945 -1.5943327 -0.3746222 -0.025049085
000250 57 4e df bf 89 2d 18 c0 53 39 21 bd 67 13 a5 bf
       -1.7445782 -2.3777792 -0.03936131 -1.2896546
000260 47 ab bf 3d 83 18 a0 3f cb f6 5e c0 66 91 35 bf
       0.093588404 1.250748 -3.483813 -0.70924985
000270 dd 1c 03 3d 2f 85 2e bd ff 42 d8 bf 57 d4 b7 bd
       0.032009948 -0.042607483 -1.6895446 -0.089760475
000280 86 af 93 3f 24 c7 0f be 27 26 cb bf ae 64 4e be
       1.153794 -0.1404081 -1.5871018 -0.20155594
000290 a1 70 bf be e4 ff ca 3b 7a 93 40 be 00 44 65 be
       -0.37390617 0.0061950553 -0.18806258 -0.22389221
0002a0 58 f5 63 be 02 45 fb bc 9c 3e 87 3d d7 e3 55 be
       -0.2226156 -0.030672554 0.06603739 -0.20887695
0002b0 1d 8e 14 be a1 6b 04 c0 e9 2b 7e be a2 2c e5 bd
       -0.14507337 -2.0690691 -0.24821438 -0.11190154
0002c0 97 f4 31 be 7c c8 7e be 4f e8 98 be c7 eb 41 be
       -0.1737846 -0.24881166 -0.29864737 -0.18937598
0002d0 ba 82 02 bf 62 5b 45 bb 2d 06 b8 be e0 df 9a be
       -0.5098072 -0.0030114283 -0.35942212 -0.30248928
0002e0 d6 79 00 bf f9 46 d0 be 26 2a cd bf b3 67 04 bf
       -0.50185907 -0.40679148 -1.6028488 -0.5172073
0002f0 1a c2 70 be ba 7b b0 be c7 db 09 c0 ec d5 8c be
       -0.23511544 -0.34469396 -2.1540391 -0.2750696
000300 e5 27 91 c0 b4 a7 db be 5a 8f b8 bd 1d 4d 30 be
       -4.53612 -0.42901385 -0.09011717 -0.17216916
000310 e1 53 e2 bd 16 4f 07 bf be a4 79 be 90 cb df bf
       -0.11051155 -0.5285505 -0.2437925 -1.7483997
000320 1f fe f8 bd 81 34 f5 be 66 98 b7 bd e2 21 2a c0
       -0.12157845 -0.4789162 -0.089646146 -2.658318
000330 50 f9 99 be 00 07 b8 3c 13 ea 90 bd 9f ef ec bd
       -0.30073023 0.022464275 -0.07075896 -0.115691416
000340 d3 ed 1a be dc 07 fe bd cc d5 5a 3d f2 bb 8b be
       -0.15129785 -0.12403843 0.05342655 -0.27291828
000350 d1 2a 57 be cb 50 4c be 65 6d b2 be 27 c6 11 bd
       -0.21012427 -0.19952695 -0.34849086 -0.035589363
000360 f9 aa 64 bf 70 78 aa be 68 0b 75 be 62 1d 90 3b
       -0.89323384 -0.33295012 -0.23930132 0.004398034
000370 aa 34 a9 3b b6 94 1f be e6 ff 56 bd a8 fb 21 bd
       0.0051637487 -0.15584072 -0.052490138 -0.03954664
000380 b5 4c 39 be 19 5e 0c be 23 eb d5 bf 9a 46 09 ba
       -0.18095668 -0.1370777 -1.6712383 -0.00052366557
000390 89 87 98 be b0 23 77 be e5 50 11 be fb 5f 60 be
       -0.29790905 -0.24134707 -0.14191015 -0.21911614
0003a0 9a 3c 95 be 53 c8 fd 3c f7 b0 35 be c2 ab 40 be
       -0.29147798 0.030979311 -0.17743288 -0.1881552
0003b0 68 e6 d2 be 17 85 93 be 73 86 2a bd 46 f4 7f bd
       -0.4119141 -0.28812477 -0.041632127 -0.062488817
0003c0 62 3c 6b bf 13 80 99 be e1 fd e3 3c dc 39 c8 3c
       -0.9188901 -0.29980525 0.02783102 0.024441652
0003d0 5b ea f1 bf 9e 10 9b be f1 11 14 c0 56 3f b3 be
       -1.8899645 -0.30286115 -2.313595 -0.3500926
0003e0 1f 5d 88 be 6b fd c3 be 1c 81 01 bf a7 9b 6a be
       -0.26633546 -0.3827928 -0.5058763 -0.22910939
0003f0 65 d0 e4 bd 8d 44 b4 bd 06 6e 80 be 11 06 2c be
       -0.111725606 -0.088021375 -0.2508394 -0.16799189

l2.weight f4 [256, 256]
000000 f8 83 a4 3d 54 b9 4e 3e 60 06 3e bc 73 a1 ef bd
       0.080329835 0.20187885 -0.0115982 -0.11700716
000010 18 e1 98 be f7 ec b7 be 8e 90 00 bc 16 4d a1 bc
       -0.29859233 -0.35922977 -0.0078469645 -0.019690078
000020 40 c5 1b 3e 17 ec e2 3c a2 bb 8b bc ab 78 1e 3e
       0.15211964 0.027700467 -0.017057244 0.15475719
000030 32 fa 0e 3e db 97 a9 bd 50 8d e1 bd 9f c2 09 bf
       0.1396263 -0.08280917 -0.11013281 -0.53812593
000040 6b 2b 91 bc 7e 03 82 c0 9b 13 3d bd 00 94 96 38
       -0.017720899 -4.0629263 -0.046161275 7.1801245e-05
000050 ec b0 34 bd 7e e1 ca bd 5a 06 07 3f 72 e5 d7 bc
       -0.04411404 -0.099062905 0.52744067 -0.026354525
000060 aa ed 48 3b 90 e0 19 be cc 06 1e 3d 5c e0 bf bd
       0.0030659237 -0.1502707 0.0385807 -0.09368965
000070 8c 84 22 3d 7c d1 5d 3c fc 2d 8b bd bc f2 ab be
       0.039677188 0.0135387145 -0.0679588 -0.3358363
000080 73 6f 70 bb 23 0d 80 bd f6 ed 8c 3c 00 05 3f 3c
       -0.0036687523 -0.06252506 0.017203312 0.011658907
000090 b5 36 59 be 8a a9 6d be 62 f1 37 bd 2f 11 75 bc
       -0.21212275 -0.23209205 -0.044907935 -0.01495771
0000a0 7b f7 77 be 18 17 2f bd 4b b1 3f bd 7f 4d 48 bd
       -0.242155 -0.042746633 -0.04679994 -0.04890203
0000b0 44 f2 d1 3d 30 bd 03 3d 52 28 71 be 16 2c 77 bd
       0.102512866 0.032162845 -0.23550537 -0.060344778
0000c0 7b 27 e1 bc 14 c8 26 be c7 e9 52 c0 f7 ee 9b c0
       -0.027484646 -0.16287261 -3.2955186 -4.8729205
0000d0 f4 bf a3 bc 4f c6 18 3d f5 a3 f1 3d 11 16 41 3d
       -0.019988991 0.037298497 0.117988504 0.047140185
0000e0 ed d9 9f 3d 8c c4 34 bd ba 28 bb bd f6 5a 53 3e
       0.07805238 -0.044132754 -0.09138627 0.20640168
0000f0 e7 67 ed 3c 80 6a 18 bd 18 15 d0 be be 99 62 3d
       0.028980209 -0.03721094 -0.40641093 0.0553224
000100 ce 73 87 3d 40 64 2e bc 27 5c 1a c0 d9 5d 1e bf
       0.06613885 -0.010644019 -2.4118745 -0.6186195
000110 6c 17 1c bc b4 83 c8 3c 9f b7 aa 3d 08 59 19 c1
       -0.009527069 0.024476863 0.08335804 -9.584236
000120 e1 74 c7 3b 28 30 6a 39 cc b4 31 bd 3a f1 f1 3d
       0.006086931 0.00022333919 -0.043385312 0.118135884
000130 b5 4c 86 bc d2 c4 76 be d9 69 b3 bd 10 ed 2e bc
       -0.016393999 -0.24098518 -0.08760423 -0.010676637
000140 83 54 da 3d 82 06 0f be 81 a8 6b bd f3 34 21 bc
       0.106606506 -0.13967326 -0.057533745 -0.009839284
000150 c2 b6 6a c0 c7 05 9a 3e 27 f3 63 3d 01 65 30 be
       -3.6674047 0.30082533 0.05565181 -0.1722603
000160 4e e2 77 be 02 13 36 bd 06 6b e0 bf ab fd 56 3e
       -0.24207422 -0.04445172 -1.7532661 0.20995204
000170 3a 4b 24 3d a6 d4 8b bd 75 55 d1 3d 97 0e bf bc
       0.040110804 -0.06827669 0.10221378 -0.023322387
000180 22 3a 8e bd 96 e8 75 bd bd 72 32 3d ad 11 b7 3d
       -0.06944682 -0.060036264 0.043566454 0.08938918
000190 94 55 ca 3e 40 ac 81 bd 18 f8 48 3c dd 32 30 bd
       0.39518416 -0.06331682 0.012266181 -0.043017257
0001a0 9c a8 14 be a8 cb 86 3d 80 8e 81 bd 26 65 2f 3e
       -0.14517444 0.06581813 -0.06326008 0.17128429
0001b0 24 37 d4 3e 4c d3 85 3d 9a 8f 1f 3d 4d bc bf 3d
       0.4144832 0.06534442 0.03895531 0.093620874
0001c0 31 8a db 3d 73 59 e8 bd d4 63 8c 3e 19 e3 d8 3f
       0.10719717 -0.11345186 0.27419913 1.6944305
0001d0 dd b3 a2 bd d5 b5 8f be 1a 2b df bb 5e b4 2c bc
       -0.079444624 -0.28068414 -0.006810558 -0.01054105
0001e0 32 e1 5c bd 14 a9 36 bc b7 80 ef 3d 75 ea 88 bf
       -0.0539257 -0.01114871 0.11694472 -1.0696551
0001f0 68 35 21 3f cb e8 64 3e b7 23 55 3e fa 28 e1 be
       0.62972116 0.22354428 0.20814405 -0.43976575
000200 40 c1 6b bb 28 39 94 3c 17 1f b0 3d da e6 87 bc
       -0.003597334 0.01809366 0.0859968 -0.01658957
000210 ca c0 0a 3d 04 fb b8 be 43 1c 6a 3e 77 b4 03 be
       0.033875264 -0.3612901 0.22862343 -0.1286181
000220 38 f4 f6 3b 28 c8 c3 be 28 a4 16 be 26 a4 13 bd
       0.0075364374 -0.38238645 -0.14711058 -0.036045216
000230 f2 cd a4 bd b9 2c 79 3d 79 1f 6a 3d a3 36 83 bf
       -0.080470935 0.060833666 0.05715892 -1.0251049
000240 0c 13 2b bf 81 11 12 bf 8c fb 03 3c dc ba 10 3a
       -0.6682594 -0.5705796 0.008055579 0.0005521008
000250 50 d2 40 bf 1b dc ca bf 8e c9 ac be 40 fc 02 c0
       -0.7532091 -1.5848421 -0.33747524 -2.046646
000260 5b 4f 9c 3d e8 7b 9f bd 4d f1 f4 3e d6 8c c8 bf
       0.07632323 -0.07787305 0.47840348 -1.566798
000270 66 79 fe 3d fd b4 c3 3c 2f b2 e1 bd 89 7a cf 3c
       0.12425499 0.023890013 -0.11020314 0.025326984
000280 e4 9a 4c bf c7 d5 bd 3d 74 5b e5 c0 9a 8b f3 bb
       -0.79923844 0.092692904 -7.1674137 -0.0074324133
000290 40 a1 8e 3c 84 c0 bb bd ec 3d 1e 3d 00 6e 0c ba
       0.017410874 -0.09167579 0.038633272 -0.00053569674
0002a0 55 05 12 3d 34 4d 9c 3d d3 61 88 3d 2a ee 89 3d
       0.035649616 0.07631913 0.066592835 0.06734879
0002b0 c4 3d 99 3d 39 71 31 c0 88 40 86 3d e0 fc d3 3b
       0.07482484 -2.7725356 0.06555277 0.006469354
0002c0 e8 38 c6 3d d1 39 03 3d 1c 5e ad be 5d 2a 1f 3e
       0.09678823 0.03203756 -0.33860862 0.15543504
0002d0 60 b3 81 3f 50 bb 0c bb ef 2f b7 bc 7f 94 a0 3c
       1.0132866 -0.0021473952 -0.022361724 0.019602058
0002e0 08 ae 5d bd 59 38 c1 3d 25 b9 93 c0 18 ff 8b 3c
       -0.054121047 0.094345756 -4.6163507 0.017089412
0002f0 97 01 10 be cb 31 90 be 42 a0 8f bf 7a 57 39 bd
       -0.14063106 -0.2816299 -1.1220782 -0.04524944
000300 c9 bc 8f c0 ec 83 e9 bd 80 d8 83 c0 5d a6 28 3d
       -4.491795 -0.11402115 -4.120178 0.04117428
000310 76 00 98 3d e8 15 59 be c5 19 e8 ba c7 81 57 bf
       0.07421963 -0.21199763 -0.0017707875 -0.841824
000320 81 68 80 3d 39 04 97 3d 03 77 df 3d 61 29 a9 c0
       0.062699325 0.07373852 0.109113716 -5.286301
000330 13 83 e3 c0 d0 69 e3 bc 1b d9 e7 3d 68 6f d5 bd
       -7.1097503 -0.027760416 0.113207065 -0.1042164
000340 8f 83 8a bd 84 4d b5 ba f3 88 4b c0 ba 4a ff be
       -0.06763374 -0.0013832306 -3.1802337 -0.498617
000350 f8 04 22 3d dc 9c 98 bc 2c 7d 47 bd f2 c3 87 3e
       0.03955552 -0.018629484 -0.048703358 0.26516682
000360 3d e3 64 c0 6c 55 73 be 2e 69 ac 3d 30 64 36 bd
       -3.5763695 -0.23763055 0.08418499 -0.04452914
000370 2e 4f 7a 3d 5a 82 61 c0 ab 1e 82 3d ec 48 af bc
       0.061110668 -3.523581 0.06353506 -0.021397077
000380 ab e8 70 bc fa fe aa bc 23 74 33 be 9f 61 80 3d
       -0.01470391 -0.020873535 -0.17524771 0.0626862
000390 43 67 66 be 06 20 ab 3e df 9b 1a 3d 5d 67 24 3e
       -0.22500329 0.3342287 0.037746307 0.16055055
0003a0 8c 35 1b bd c7 1d c9 bc 03 ae f6 bd 51 0e 33 3d
       -0.037892863 -0.024550332 -0.12044909 0.043714825
0003b0 03 9e 66 be eb 98 c3 3d a4 f0 b2 bd 52 d4 22 bf
       -0.22521214 0.09550651 -0.08737305 -0.63605225
0003c0 b6 91 68 bf 46 1e 3b 3c 20 91 cf 3d e4 d0 c2 bc
       -0.9084734 0.011420792 0.10135102 -0.023781247
0003d0 24 9b e8 be 20 c6 95 3d 1c ee 52 c0 6f 0e 9e 3d
       -0.45430863 0.0731318 -3.295783 0.07717597
0003e0 b7 6b 99 bd 1b 2d 9f 3d 8d d0 99 be b3 e7 82 3e
       -0.07491248 0.07772275 -0.30041924 0.25567397
0003f0 af 36 8c bd 90 09 10 3d 14 86 92 bd da 4b 5c 3d
       -0.068463676 0.03516537 -0.071544796 0.053783275

l2.bias f4 [256]
000000 3e 75 41 3f fe c4 96 bf b1 55 5b c0 96 c4 6f c0
       0.7556952 -1.1778867 -3.4271052 -3.7463737
000010 ef 55 66 be 39 d3 b8 be a0 3b df be 2e d5 33 c0
       -0.22493719 -0.3609865 -0.43600178 -2.8098865
000020 49 a2 74 bf 64 12 3d c0 43 3e 1f c0 a0 ec 21 bf
       -0.9556013 -2.9542475 -2.4881752 -0.63251686
000030 42 4e c9 c0 f7 95 f7 be a9 50 d1 be e8 84 76 c0
       -6.290803 -0.48356602 -0.4088185 -3.851862
000040 d6 2a 6f c0 3d 31 bb bf 54 12 d4 be 24 f3 b7 be
       -3.7369895 -1.4624401 -0.41420233 -0.3592769
000050 9a 47 c8 bf 99 ae ae be 4d 71 92 c0 dd 2c 01 bf
       -1.5646851 -0.34117582 -4.5763307 -0.5045908
000060 14 bb 39 c0 84 89 3e bf 35 4e aa bf e9 e7 53 c0
       -2.9020433 -0.7442858 -1.3305117 -3.3110297
000070 c0 f9 36 c0 90 5d 14 c0 8b 48 2d c0 a1 37 0c c0
       -2.8589935 -2.3182106 -2.7075527 -2.1908953
000080 29 f3 08 bf 69 77 13 bd 5d 55 8a c0 be e1 8c bf
       -0.5349603 -0.03600255 -4.3229203 -1.1006391
000090 d4 01 ab be c5 e1 37 40 67 d1 99 3d 50 b3 f5 be
       -0.33399832 2.8731549 0.075106435 -0.47988367
0000a0 ba a7 e8 bd 5e 5b c6 bf fe c5 44 c0 9d 43 4e bf
       -0.11360116 -1.5496633 -3.0745845 -0.8057192
0000b0 8b c4 b9 be 31 d3 30 be 9a bd b2 be eb 1d d8 bf
       -0.36282763 -0.17268063 -0.3491028 -1.688413
0000c0 67 c6 23 c0 f5 34 b2 3e d2 3b ff be 1a 86 27 bf
       -2.5589845 0.34806028 -0.49850327 -0.65439
0000d0 f0 c2 3b bf e5 bf 57 bf fd f2 03 c0 c2 96 e8 bf
       -0.73344326 -0.8427718 -2.0617058 -1.8171008
0000e0 67 e3 c7 c0 a0 0b a7 bf 8c c5 50 bf 1e 82 b9 be
       -6.246509 -1.3050423 -0.8155143 -0.36232084
0000f0 e5 aa 47 bf 7e cc 9c c0 f8 5a a5 c0 bb 9c 3f bf
       -0.7799514 -4.8999624 -5.1673546 -0.74848527
000100 a7 5d 8c c0 e5 f5 87 c0 65 73 f2 3f 3c c9 00 bf
       -4.386432 -4.2487664 1.8941466 -0.5030706
000110 f5 9e 8c c0 cf fb 86 c0 32 eb 28 c0 de 28 cc be
       -4.394404 -4.2182384 -2.6393552 -0.3987493
000120 71 2b 36 bf 1e 54 3a bf 49 50 19 c0 94 d6 3c bf
       -0.71160036 -0.727846 -2.3955252 -0.7376492
000130 4d d6 4e bf f2 ae 78 bf 53 06 85 c0 d0 91 81 bf
       -0.8079575 -0.97141945 -4.157022 -1.0122623
000140 f9 03 49 c0 9e 1e fd be cd 13 fd be e1 7c 12 bf
       -3.1408675 -0.49437422 -0.4942917 -0.572218
000150 fb 2c 14 bf 38 bc 11 c1 2a 1f fc be ae b7 9e c0
       -0.57881135 -9.108452 -0.49242526 -4.959922
000160 bc 74 c9 bf bb ef eb be f8 ef 08 bf 5a be 07 bf
       -1.573875 -0.46081337 -0.53491163 -0.5302483
000170 2a 0b 6e c0 14 66 a3 bf 5b 5a c6 c0 00 1f 57 bf
       -3.7194314 -1.2765527 -6.1985297 -0.8403168
000180 74 cd 46 bf 25 61 ee c0 46 fb 94 bf fb 79 41 bf
       -0.77657247 -7.4493585 -1.1639183 -0.7557675
000190 a5 94 81 c0 9c 18 27 c1 0c 2b bd be 08 31 a2 bf
       -4.049395 -10.443508 -0.36946905 -1.2671213
0001a0 d8 ec 00 bf 65 f8 64 bf f3 82 c8 be e6 31 45 c0
       -0.50361395 -0.8944152 -0.39162406 -3.0811706
0001b0 fa 05 ab be 6e 75 c5 bd da 84 15 bf 96 2b de c0
       -0.33402997 -0.096415386 -0.5840584 -6.9428205
0001c0 3f 71 d9 be c4 18 b9 bf f8 60 22 c0 9d 6c 3a bf
       -0.42469212 -1.4460683 -2.5371685 -0.7282198
0001d0 42 50 8b c0 fc 27 3e c0 2b b1 4a c0 3f 28 03 bf
       -4.353547 -2.9711905 -3.1670635 -0.51233286
0001e0 6b 99 c4 be 32 0d aa bd 65 de 57 3f fc 3b 2e c0
       -0.383983 -0.08303298 0.8432372 -2.7224112
0001f0 dc 5d b0 c0 b4 7e 75 c0 95 ba 36 bf d7 03 30 c0
       -5.5114574 -3.8358583 -0.7137845 -2.7502344
000200 d5 2f 0a c0 53 65 4b bf c2 a8 18 c0 15 9e b0 c0
       -2.1591694 -0.79451483 -2.3853002 -5.519297
000210 b3 2f 1f c1 f0 88 1f c0 c7 4f 05 bf e3 0a 79 bf
       -9.949145 -2.492733 -0.52074856 -0.97282237
000220 62 94 60 c0 4b 1d ac be be 7f 93 bf 3f 92 d3 bf
       -3.5090566 -0.336161 -1.1523359 -1.6529006
000230 b0 a6 2d bf fa 15 b3 c0 f8 e0 95 be 37 13 8a bf
       -0.6783247 -5.5964327 -0.292732 -1.0787114
000240 ab 76 8f be 0b 3e 9b be ae 50 28 bf 72 7f e8 c0
       -0.28020224 -0.30320773 -0.6574811 -7.2655573
000250 14 14 8f be 5f 3c d7 bf e0 ca 1e bf 54 9c d3 bf
       -0.27945006 -1.6815299 -0.6202831 -1.6532083
000260 ac f0 5b bf 7d 5a d3 be 10 e7 91 c0 19 86 74 bf
       -0.8591411 -0.41279975 -4.559456 -0.95517117
000270 74 12 7c c0 e8 e6 22 c0 70 a1 82 bf 7c a4 7b c0
       -3.9386263 -2.5453434 -1.0205517 -3.9319143
000280 b4 52 c7 bd a0 45 c8 be f2 77 a5 bf 9e 03 04 bf
       -0.09732571 -0.3911562 -1.292723 -0.5156802
000290 d9 05 25 c0 8a a7 16 bf 0e 0c 66 c0 1f b5 34 bf
       -2.578482 -0.58849394 -3.5944858 -0.7058887
0002a0 e3 1f a0 bf 3e 8b 52 c0 ec 7f 7a bf 21 1e 8f bf
       -1.2509731 -3.2897487 -0.97851443 -1.118107
0002b0 d6 3a cf 3f 10 46 a6 bf 0d 06 85 be f9 94 37 bf
       1.618983 -1.2990131 -0.2598118 -0.7171169
0002c0 92 9d b4 be 0d fd 18 3f bb f5 2d bf bd 83 04 c0
       -0.35276467 0.59761125 -0.6795308 -2.0705407
0002d0 72 c1 95 bf 3d 53 34 bf 5e 80 3a c0 ec 41 4f bf
       -1.169966 -0.7043951 -2.914085 -0.80959964
0002e0 04 50 cd be 00 2a 79 bf 37 20 41 40 f2 39 a1 c0
       -0.4010011 -0.9732971 3.0175912 -5.0383234
0002f0 08 6a c4 be 8c d4 e0 bf e3 fb 43 c0 35 96 03 c1
       -0.38362145 -1.7564864 -3.062249 -8.224172
000300 8e 1c 9b be 40 e3 0b 3e e9 4f 10 bf 36 c2 16 bf
       -0.30295223 0.13660908 -0.56371933 -0.5889009
000310 3a d8 4f c0 78 a8 ec be 92 81 71 bf 77 b8 95 c0
       -3.2475724 -0.4622228 -0.94338334 -4.6787677
000320 9c eb af be 13 e0 1b bf 6e 35 a5 be b9 f9 26 c0
       -0.34359443 -0.60888785 -0.32267326 -2.6089919
000330 23 6b ac c0 84 87 57 c0 73 15 d6 be 29 a1 01 c1
       -5.388078 -3.3676462 -0.4181324 -8.101846
000340 58 e6 8e bf 13 14 88 bf a3 77 be be 2c b6 b0 c0
       -1.1164045 -1.0631126 -0.3720065 -5.522238
000350 8a a5 09 c0 f3 59 77 bf 4c 70 e0 bf e1 88 53 c0
       -2.1507287 -0.96621627 -1.753427 -3.3052294
000360 78 88 29 c0 d5 10 0f bf b1 2e 85 bf a7 23 db be
       -2.6489544 -0.5588506 -1.0404874 -0.42800638
000370 f4 36 98 bf cd cc ae be cb 6c 29 c0 f2 05 61 bf
       -1.189177 -0.34140626 -2.6472652 -0.87899697
000380 06 14 92 bf 97 f4 92 bf f7 97 35 bf 4d 0a 84 bc
       -1.1412361 -1.1480893 -0.70935005 -0.016118193
000390 fd 05 45 c0 28 74 2c bf 7e cf 47 bf 34 c3 19 40
       -3.0784905 -0.6736474 -0.7805098 2.4025393
0003a0 48 22 65 be 42 08 1d c0 6e 66 3d bf e1 c2 c9 bd
       -0.22376359 -2.453629 -0.7398442 -0.09851623
0003b0 e9 c2 f8 be b6 04 96 c0 6d c5 46 c0 1a da 9d bf
       -0.48586205 -4.688075 -3.1058 -1.2332184
0003c0 11 f4 65 c0 1d e5 a7 be 31 79 92 bf 78 13 2d c0
       -3.5930216 -0.32791987 -1.1443235 -2.7043133
0003d0 ee 4f 6a bf 4d 4a 1f bf 6f da 2c bf 33 3e 3b bf
       -0.91528213 -0.6222275 -0.67520803 -0.73141783
0003e0 57 a9 3f 3e 52 96 d3 bd e7 30 b6 c0 d8 51 4d c0
       0.18716942 -0.10331406 -5.6934695 -3.2081203
0003f0 5f a6 83 bf fd d1 b5 bf 72 f0 02 c0 ab 11 aa bc
       -1.0285147 -1.4204708 -2.0459256 -0.020760378

l3.weight f4 [1, 256]
000000 b5 2d 89 3d 76 fe 45 3d a8 06 65 be f9 1a 65 3e
       0.06698171 0.048338376 -0.2236582 0.2237357
000010 dd 02 89 3d c3 2d 28 be f2 5b 0d 3d 03 21 ff 3d
       0.06689999 -0.16423707 0.034511514 0.12457468
000020 cf c5 d4 bd c2 7e 45 be 23 ff 00 be 7d 1e ae bd
       -0.103892915 -0.19286636 -0.12597327 -0.08501909
000030 c6 29 2c bb 90 79 65 3d b2 e5 89 be b4 e3 9a 3e
       -0.0026270016 0.056024134 -0.26933056 0.3025185
000040 10 87 8f 3e cf 52 1e bd c8 e9 81 3e e4 71 7d 3e
       0.28032732 -0.03865319 0.25373673 0.24750477
000050 ac 50 a0 be 4a 64 7c 3d af 34 bc bd f9 7e 86 3e
       -0.31311548 0.06161908 -0.09189736 0.26268747
000060 43 3a 96 3e 92 06 3b be e7 48 18 be 46 f5 5b be
       0.29341325 -0.18264225 -0.1487156 -0.21480283
000070 7f ba 5c bc c9 9e 3f 3e df ad 22 be 84 8c e6 3c
       -0.0134721985 0.18712915 -0.15886639 0.028143175
000080 6f 17 e0 bd 59 ba b0 3c a4 36 ed 3d 70 ad 8a 3d
       -0.109419696 0.021573232 0.115826875 0.06771362
000090 a2 8b b3 be 78 31 08 be db d2 86 3d 17 32 48 3e
       -0.3506747 -0.13300121 0.06583186 0.19550358
0000a0 f2 f6 bd 3d 8e 8d 9b 3e a5 68 cd bb 47 7b 94 3d
       0.09275617 0.30381435 -0.006268578 0.07250076
0000b0 84 b2 8a bb 8a 63 51 3c f6 8e c3 3d 7c 72 80 bd
       -0.0042327065 0.01278008 0.09548752 -0.06271836
0000c0 ef 4d 99 be 53 f6 9a bd 10 e4 0d 3d aa 7a 7a be
       -0.2994227 -0.07566514 0.034641325 -0.24460855
0000d0 c8 55 8f bc d9 59 75 3d 6b 90 27 bd bb 7c b8 3d
       -0.017496958 0.05990014 -0.040909212 0.090081654
0000e0 ca 35 b6 bd 33 2c 88 bd 17 39 31 be f8 ff 13 3d
       -0.08896978 -0.06649055 -0.17306934 0.036132783
0000f0 a8 ae 7a bd 88 3c 86 3e dd d5 a2 3d b3 2b 83 bd
       -0.06120172 0.26218057 0.079509474 -0.06404819
000100 8e 21 23 bd 97 c9 58 bb c3 c1 d3 3d cb ea 5d be
       -0.039826922 -0.0033079141 0.103396915 -0.21671598
000110 6f 64 8a 3e 4c 62 64 3c ee a4 96 3e e6 38 92 3e
       0.2702975 0.013939451 0.29422706 0.28559035
000120 52 0c 06 bc 40 bb 8e be 40 c5 14 be 53 7a f0 3c
       -0.008181648 -0.27877235 -0.1452837 0.029355204
000130 6f 48 6a bd fb 43 a1 be dd 45 93 be af 64 b4 3c
       -0.057197984 -0.31497177 -0.2876424 0.022020666
000140 13 a2 98 3d aa 69 92 be c4 61 3b 3e 94 fc 26 3e
       0.07452788 -0.2859624 0.18299013 0.16307288
000150 9c bb 82 bd 4f 7a f6 3d f2 e2 fb bc c1 5a d0 bd
       -0.0638344 0.12035047 -0.030747864 -0.1017356
000160 2a ac 25 3e 03 e7 7f bd d2 ba 84 3d 05 eb 5d bd
       0.16178957 -0.06247617 0.06480946 -0.05417921
000170 75 ec 5c bc 7a 7a c3 3d d9 7c 7e 3d 7c 7b 9e bc
       -0.01348411 0.09544845 0.062130783 -0.019345991
000180 64 a5 89 3c 33 87 bc 3d b9 c0 04 3e 3d 9b 01 3e
       0.016802497 0.09205475 0.12964143 0.12656875
000190 d2 2d 37 bd 62 48 c0 bd 09 b5 7d be 1c 04 9d bd
       -0.044721432 -0.09388806 -0.2477609 -0.076667994
0001a0 e4 ca c0 be b5 cf 90 3e bb 70 9e 3e f5 5a 99 3d
       -0.37654793 0.28283468 0.30945382 0.07488052
0001b0 20 c7 6d bd 58 12 f9 3d 63 87 b4 bd d5 5a 07 3e
       -0.05805123 0.12161702 -0.088148855 0.13218243
0001c0 36 c0 27 be 0a cc a7 bc 22 bd 45 3e 63 32 68 3d
       -0.16381916 -0.020483036 0.1931043 0.056688678
0001d0 12 a5 99 be b3 a4 32 bd 5c 35 53 3e 4c 68 1f 3e
       -0.3000875 -0.0436141 0.20625824 0.1556713
0001e0 41 66 67 3e ec 7c e6 3c 06 4d b4 3d 82 26 4c 3d
       0.225976 0.02813574 0.088037536 0.04984141
0001f0 87 d7 2b be 4b f5 82 be ae 35 55 bd a9 18 92 3e
       -0.16781436 -0.2557777 -0.052053146 0.2853444
000200 06 71 78 be e0 fd 8e be c8 05 00 be 3d 79 a7 bc
       -0.24261865 -0.27928066 -0.12502205 -0.020443553
000210 c4 15 d1 bd 2a de d8 3d 67 55 ff 3c 43 8e 62 3e
       -0.102092296 0.105892494 0.031168653 0.22124581
000220 8d ee 82 bc a8 84 02 bd b9 b4 af bc ef 6a df bd
       -0.01598289 -0.031864792 -0.02144848 -0.10909068
000230 b6 aa 40 be 53 63 98 be e0 84 8f 3d b8 8b 70 be
       -0.18815121 -0.29763278 0.07007766 -0.23490798
000240 aa 25 20 be 20 bf 03 3e 82 b7 e5 bc 9e e2 61 be
       -0.15639368 0.12865877 -0.028041605 -0.22059104
000250 38 ca 48 be f6 4f fe 3d 9f 51 94 be c2 0c 10 be
       -0.1960839 0.12417595 -0.28968522 -0.14067367
000260 86 df 00 3d f4 2c 94 3e c7 14 1c 3e 54 84 8d bd
       0.03146317 0.28940547 0.15242301 -0.06910005
000270 4c 7f be bc 30 70 87 be 3a 20 3d 3e 24 f7 ba 3d
       -0.02325406 -0.2645278 0.18469325 0.091291696
000280 e7 0d 91 bb 23 06 b7 3a a4 2c 2e be 39 17 f3 bc
       -0.004426706 0.0013963621 -0.17009217 -0.02967416
000290 b0 63 7b bd 90 43 08 3e c9 3e 54 3e b9 3b 54 bb
       -0.061374366 0.13307023 0.20727076 -0.003238423
0002a0 53 3f 74 be 28 7c 84 be 33 d8 59 3e 9c 1f 33 3e
       -0.23852281 -0.25875974 0.2127388 0.17492527
0002b0 2e 86 fb bc c4 b7 80 3e bc 95 25 3e 86 db 04 be
       -0.03070363 0.25140202 0.161704 -0.12974367
0002c0 44 7b 86 bc 46 3d 68 bd e9 a2 13 3a 8e 89 1b be
       -0.0164162 -0.05669906 0.00056318805 -0.15189192
0002d0 65 f7 66 be 61 6e 36 be 0b 16 0e bc 7e f2 9d 3e
       -0.22555311 -0.17815544 -0.008672248 0.3084907
0002e0 24 63 44 be 73 14 82 be 0b be e1 3c e1 91 22 3d
       -0.19178444 -0.25406227 0.02755644 0.039689902
0002f0 03 41 75 be 64 b4 05 3b d9 b0 2f 3e 6f 5f 13 be
       -0.23950581 0.002040171 0.17157306 -0.14391874
000300 33 f3 75 3d de 6a 8e bd 46 4f 5f be 1f f0 a2 bd
       0.060046386 -0.06953977 -0.21807584 -0.07955956
000310 14 a0 04 3e 91 1d 14 3d e7 01 28 bd 27 64 1a 3e
       0.1295169 0.03616101 -0.04101744 0.15077268
000320 3e e5 81 be 62 8e 15 3e b0 54 8e be 3e 88 72 3e
       -0.2537021 0.14605096 -0.27798986 0.23684785
000330 b4 2f eb bc 5d 40 82 3e 55 de 95 be 9d 77 e6 bd
       -0.02870927 0.2543973 -0.29271188 -0.11253283
000340 0b 6a e7 3d a2 fc 80 3d b3 c2 98 be 6f 18 9d be
       0.11299523 0.06298186 -0.29836044 -0.30682704
000350 5b 00 6a 3e e7 c6 0f bc a9 cb 8c 3e f1 66 36 be
       0.22851698 -0.008775449 0.2749913 -0.17812707
000360 c3 ea 02 be 71 5c 8c 3e 08 14 01 bd 25 a3 92 be
       -0.12784867 0.27414277 -0.031513244 -0.28640094
000370 42 35 17 3e 1b 99 fd 3d 3c 49 f9 3b 57 af 06 3c
       0.1476641 0.12382718 0.007607607 0.008220515
000380 e3 2a a1 3d d3 6e 85 3e 83 fe 56 3e b3 c8 4c 3c
       0.07869508 0.26061115 0.20995526 0.012499022
000390 d9 99 a0 3e 34 30 25 be 9b d0 da 3d 7b e8 c7 3d
       0.31367376 -0.1613167 0.106843196 0.09761139
0003a0 84 ac a5 bb ea d6 bc 3d ff 25 51 3e 90 e2 20 3c
       -0.005055966 0.09220679 0.2042465 0.009819642
0003b0 d7 ce 79 be 68 fe 5a be de 7e 90 be 33 ff 08 3e
       -0.2439531 -0.21386111 -0.28221792 0.13378601
0003c0 dc 99 01 bc 53 2b e2 3d b0 1f 66 3e bc 9e 32 be
       -0.007910218 0.1104342 0.22473025 -0.17443365
0003d0 c3 42 32 be fc b6 35 3e 56 9e 4f bd 45 a3 8d 3e
       -0.1740828 0.17745584 -0.05068811 0.27663627
0003e0 25 3a c1 bd be 24 d5 bd 7c 0c 62 3e b9 34 64 3e
       -0.09434918 -0.10407399 0.22075075 0.22285737
0003f0 df 41 0c be 31 ee 78 be 59 e4 8b be 06 f0 7e ba
       -0.13697003 -0.24309613 -0.27322653 -0.00097250973

l4.weight f4 [256, 42]
000000 5a 0d 9b 3d aa da 1a be bc 08 bd 3c 31 1b 7e bd
       0.07570906 -0.15122476 0.023075454 -0.06203765
000010 9c d4 1d 3e 7b 0c 4f 3c 53 cc dc 39 05 4d eb bd
       0.15413135 0.012637253 0.00042113903 -0.114893
000020 e8 f9 c7 bc 64 b4 8c bd e6 34 6c 3d 30 65 76 3c
       -0.024411157 -0.06870344 0.057667635 0.015038773
000030 09 6e 3b be 0b 9e c0 bd b9 fa 71 3d b1 35 e4 bd
       -0.18303694 -0.09405144 0.059077 -0.11143053
000040 f2 49 57 be 68 08 68 be c4 73 77 be 2c 44 85 be
       -0.21024302 -0.22659457 -0.24165255 -0.26028574
000050 34 dc 92 be ad fc 2f be 61 24 a6 be 54 35 87 bd
       -0.28683627 -0.17186232 -0.3244963 -0.066019684
000060 c5 2e 10 3d 85 40 18 be f8 8c 4b bd d2 48 e0 bd
       0.035200853 -0.14868362 -0.049694985 -0.10951389
000070 6c 71 b2 bd 45 7e cc bd 58 93 c0 bd 85 0a c7 bd
       -0.0871304 -0.099850215 -0.094031036 -0.09718803
000080 e4 1f ff 3d 62 f1 4f be e3 d4 9e be f9 44 49 3e
       0.124572545 -0.20306924 -0.31021795 0.19655217
000090 3a 06 5b be 0a fb b1 be da f2 43 be 6e 7b 11 3e
       -0.21389094 -0.3476184 -0.1913561 0.14207241
0000a0 52 77 17 be a0 da bf 3d b1 ea 65 3f c5 9c 31 40
       -0.14791611 0.09367871 0.89811236 2.7751935
0000b0 59 23 2e 3f c5 d2 62 3f 30 3a 13 3f 97 04 ee 3e
       0.68022686 0.8860286 0.5751066 0.46487877
0000c0 6b 44 d4 3e fb 6e d9 3e b1 fc 93 bf e7 ab be bf
       0.4145845 0.42467484 -1.156149 -1.489621
0000d0 fe b0 39 be 26 bc 28 bf 94 3d 20 3f 35 83 5d bf
       -0.18133923 -0.6591209 0.6259396 -0.8652833
0000e0 fc 7f 60 c0 0c 09 24 3e e6 f6 9e 3e 39 5c a5 c0
       -3.5078115 0.16019076 0.31047744 -5.1675076
0000f0 eb e2 68 c0 03 68 5e c0 b8 c4 f8 be 69 11 9b 3f
       -3.63885 -3.4750984 -0.48587584 1.2114688
000100 85 fd ae bf a8 01 60 c0 95 dc f6 3f aa 5f 14 3f
       -1.3671118 -3.500101 1.9286066 0.5795847
000110 3a 0d 22 3f 43 34 c3 3d 05 36 9d ba 2d 11 a8 bd
       0.6330143 0.095314525 -0.0011994248 -0.08206401
000120 40 d2 b8 bd 48 61 46 40 7d 49 1d 41 a1 9c ee bf
       -0.09024477 3.0996876 9.830441 -1.8641549
000130 00 95 31 bc 28 10 fc bf 43 25 44 be 0d f0 b6 3e
       -0.010838747 -1.969243 -0.19154839 0.3573002
000140 a1 76 82 bd 23 c1 ca 3e b2 02 ff bf b7 f0 2f 41
       -0.06370283 0.39600477 -1.9922698 10.996268
000150 30 b4 e6 bd 80 d4 92 bd 8f 98 4c 3d 20 2e ac 3d
       -0.11264837 -0.071694374 0.04995018 0.08407235
000160 41 ce bc 3d 22 d0 52 bd 87 eb 4d be 68 28 98 3d
       0.09219027 -0.051468022 -0.20109378 0.07429582
000170 c6 89 c6 bd 32 3a 3b bc b3 a3 d0 3b 3c 1a 57 bd
       -0.09694247 -0.011427449 0.0063671707 -0.052515253
000180 6c a1 3e be 04 f3 92 3d 46 f3 ae bd 9c d6 0d be
       -0.18616265 0.07175258 -0.085424945 -0.13851398
000190 24 b6 a3 3c 71 e8 64 bd a7 9e 06 be 1c 9b 01 be
       0.019984312 -0.055885736 -0.13146459 -0.12656826
0001a0 31 d4 16 be a6 6b 95 bb b8 28 cb 3c 7f ab 14 be
       -0.14729382 -0.004559952 0.02479969 -0.14518546
0001b0 d3 1c aa bd cd 0e a2 3c 2f f0 16 be 7f e9 9b bc
       -0.08306279 0.019782448 -0.1474006 -0.019032238
0001c0 b2 9b a5 bd 5c 07 ee 3d 9b 72 92 bd e3 d0 d3 3b
       -0.08086337 0.116224974 -0.071507655 0.00646411
0001d0 36 31 0d bc 20 6e 03 be ce b9 d1 bd 31 e4 34 bd
       -0.00861769 -0.12834978 -0.102405176 -0.044162933
0001e0 c7 82 bd 3d ab 0e 04 bd aa 86 fb bd ca 02 c1 3d
       0.092534594 -0.03224055 -0.122815445 0.0942436
0001f0 99 10 70 bd 06 29 5e bb 41 30 1d c0 06 6f 56 40
       -0.05860958 -0.0033898964 -2.4560702 3.3505263
000200 21 0a 25 c0 c3 00 05 40 00 00 07 c0 ea 4b af c0
       -2.5787432 2.0781715 -2.109375 -5.478017
000210 b9 33 2b 3e 39 f7 a7 c0 d5 ca 86 c0 5a 5d 28 c1
       0.1671895 -5.2489285 -4.21226 -10.522791
000220 21 2b 25 c0 a0 c0 44 3f 3d 19 f0 bf 0f a4 c0 3f
       -2.5807574 0.7685642 -1.8757702 1.5050067
000230 0e 4e 97 40 ae a7 ac 3f 2d 1b fa bf dc 11 fd bf
       4.728278 1.3488672 -1.9539543 -1.9771075
000240 18 f1 2e 3f 7e ac fd 3e 99 70 86 3e ab 9b e2 3e
       0.6833663 0.49545664 0.2625778 0.4425939
000250 5a 47 d7 bf 58 a5 f7 c0 7a 5f 29 40 f1 8e 04 c0
       -1.681865 -7.7389336 2.6464524 -2.0712245
000260 af b4 fe bf f9 04 fd bd 0e 43 cc bd 5f 51 d9 bd
       -1.989889 -0.12354464 -0.09973727 -0.106112234
000270 8c 1a ad 3d cb 89 a2 40 dc 74 c9 c0 7a 51 a3 bf
       0.08452329 5.0793204 -6.295515 -1.275924
000280 ce fc 1c be 00 72 07 bf ce 30 20 41 37 ee 97 c0
       -0.15330812 -0.52908325 10.011915 -4.747829
000290 b7 a4 8e c0 a7 c1 cb bf 00 69 a1 3f 97 dd a5 c0
       -4.457607 -1.5918473 1.2610168 -5.1832995
0002a0 57 9f 2c 3d af 29 dc 3c d8 bd 64 bd 79 a8 e8 bd
       0.042144146 0.026875345 -0.05584511 -0.113602586
0002b0 14 ac 2d be 7c c4 df bc e3 69 d8 bc b5 58 1a be
       -0.16960174 -0.02731537 -0.026417678 -0.15072902
0002c0 84 4b ca 3c 73 fe 1e be d5 b4 8f be 75 3c fa be
       0.024694212 -0.15526752 -0.2806765 -0.4887425
0002d0 6d 4c e6 be 0e ff 52 be 52 1f e2 bd 19 85 99 bd
       -0.44980183 -0.20605108 -0.1104113 -0.074960895
0002e0 27 77 80 bd 9e f0 5a be db dc a3 bd ea 8c 3c bd
       -0.062727265 -0.2138085 -0.08001109 -0.046032824
0002f0 41 9a cf be 8a 42 23 bf 75 ea 35 be fe c0 26 bf
       -0.40547374 -0.63773406 -0.1776522 -0.6513823
000300 a0 98 91 bd 0d b4 63 be 97 83 ab be 72 93 a2 3d
       -0.07109189 -0.22236653 -0.33498833 0.07938279
000310 ae 70 f1 bd ee 7a 79 3c c0 a3 04 3e e8 86 13 be
       -0.1178907 0.015227063 0.1295309 -0.14406931
000320 9b c6 95 3e 1f 9f e6 bb 28 60 23 3d a1 27 07 be
       0.29253086 -0.0070380117 0.039886624 -0.13198711
000330 3f 4c 07 3d 78 bc db 3e 04 86 c4 be 76 71 f3 be
       0.0330317 0.42917228 -0.38383496 -0.475475
000340 ac 05 32 be e0 d4 38 3d e8 05 7f 40 62 13 e8 bf
       -0.17384976 0.04512489 3.9847355 -1.8130915
000350 fb 4a be bf d4 31 5d 3e 65 53 a5 3f 2e 0e 2f 40
       -1.4866632 0.21601039 1.2916075 2.7352405
000360 af 0c 09 3f 5f dd 14 bf 7a 12 d4 3e cf fa 20 bf
       0.5353498 -0.58150285 0.41420346 -0.62882704
000370 57 9e 74 3f bc 6b d3 3e c3 45 0f c0 08 b2 15 3f
       0.9555411 0.41293132 -2.238633 0.5847478
000380 6f b0 b5 be ef 8d 7f 3f 4f da 03 3f 1f 6d e4 be
       -0.3548617 0.9982595 0.5150499 -0.44614503
000390 26 19 2d 3f 7f db 95 3e 22 ea 27 bf 19 e6 16 3d
       0.676165 0.29269025 -0.65591633 0.036840532
0003a0 8c 6a eb bf cb 98 80 bf 23 60 51 3e f7 f5 14 c0
       -1.839189 -1.0046629 0.2044683 -2.3275125
0003b0 c3 79 07 c0 af ce 1c be ad 9e e4 bd ee 8f 01 bd
       -2.1168067 -0.15313219 -0.111630775 -0.031631403
0003c0 ba 57 e2 3d 91 d5 d0 c0 2a a4 24 41 8d ad db bd
       0.11051889 -6.52607 10.290079 -0.107264616
0003d0 4d ed 61 3d 51 ee 32 c0 f0 68 82 3f 02 5d 8c bf
       0.05515795 -2.7957957 1.0188274 -1.0965884
0003e0 c2 e0 24 be 3a d9 01 3f af 29 3f 3c 4e 3c 94 c0
       -0.16101363 0.50722086 0.011667653 -4.6323614
0003f0 d5 b7 76 bd 41 24 f8 3c c4 3e 91 3d 20 f7 b4 3c
       -0.06023391 0.030290725 0.0709205 0.022090495

l4.bias f4 [256]
000000 b7 c6 35 be c0 e6 47 3f 50 3a 24 be 6c 00 03 c0
       -0.17751585 0.7808647 -0.1603787 -2.0469007
000010 2b fd a8 be fd ba 06 c0 70 1d 08 be 46 38 10 c0
       -0.33005652 -2.1051629 -0.1329248 -2.2534347
000020 91 81 24 be cd 81 66 be 32 8d 65 be 1f b8 00 bc
       -0.1606505 -0.22510453 -0.22417143 -0.007856398
000030 23 f4 80 3c e7 c1 27 be f2 d2 87 bd bb a9 12 bd
       0.015741413 -0.16382562 -0.066320315 -0.0358064
000040 91 86 17 c0 1a 77 d7 be 8a 51 0a bf ff e2 86 be
       -2.3675883 -0.42083055 -0.5403067 -0.2634506
000050 50 9c 28 c0 42 36 07 c0 eb a1 89 be 4e 4f 67 bd
       -2.6345406 -2.1126866 -0.26881346 -0.056472115
000060 21 d6 d6 be 9b 6c a1 be be af 5f bd 9b aa 7b c0
       -0.41960242 -0.31528172 -0.05461096 -3.932288
000070 0d 71 72 bf fd c5 44 bd 3a 0e b5 be 40 f5 a0 be
       -0.9470375 -0.04804038 -0.35362417 -0.3143711
000080 f2 bc 7f 3d 75 62 ad be 07 27 2c bd 69 fc 27 bd
       0.06243605 -0.3386418 -0.042029407 -0.0410122
000090 c7 9f 76 be d3 20 f8 bd 20 cb c1 bd c9 a2 ab bd
       -0.24084388 -0.12115636 -0.09462571 -0.08380658
0000a0 23 84 ad be 1e 4f 97 bf 25 c9 37 3f c0 e4 1d be
       -0.33889875 -1.182102 0.717913 -0.15419292
0000b0 9a ec 42 be 05 ad ed be 4e cf 92 be 52 9c e0 be
       -0.19035569 -0.46421066 -0.28673786 -0.43869263
0000c0 8a 89 a8 be 3e 24 67 bf ac ad 91 3d 4e 75 63 be
       -0.32917434 -0.90289676 0.071132034 -0.22212717
0000d0 99 99 dd be 75 ec 47 bf 50 77 33 be e6 51 e0 be
       -0.43281248 -0.7809518 -0.17525983 -0.43812484
0000e0 a4 9f 92 bf 92 32 e8 bd 1a 35 85 bc 07 ff d0 bf
       -1.1454968 -0.113377705 -0.016260672 -1.6327828
0000f0 a8 fc 8c bc 8d 52 1f be 95 a4 28 bd be d4 b4 ba
       -0.01721032 -0.15558834 -0.041172583 -0.0013796312
000100 80 51 82 bc ac 63 bc 3f 64 e4 a0 3c 34 76 66 bf
       -0.015908003 1.4717917 0.019640155 -0.90024114
000110 e9 98 1c be 3b 17 a3 be 07 7e a8 bc 16 52 ae be
       -0.15292706 -0.3185366 -0.020567907 -0.34047002
000120 fa d7 20 be c1 e1 c2 be 23 52 9a bd 78 a8 17 c0
       -0.15707389 -0.38062862 -0.075351976 -2.3696575
000130 2b 94 98 bf 36 4d 6c be 78 5a f1 3b 49 de ce 3c
       -1.1920217 -0.23076329 0.007365521 0.025252478
000140 ee 8a 4c bd b2 61 2c c0 69 eb bb be 42 b8 6c bd
       -0.04993718 -2.6934628 -0.3670304 -0.05779291
000150 ed 4e ee be 0e 4a 0e 3d e6 c7 82 be 48 fe 30 be
       -0.4654459 0.034738593 -0.25543135 -0.172845
000160 d2 9a e0 bd 81 93 d0 be b5 27 5a bd e5 20 0d bf
       -0.1096703 -0.40737537 -0.053260524 -0.5512832
000170 34 fd 00 bd 95 e9 b6 3c 56 37 d9 be 74 99 bf bd
       -0.031491473 0.022328177 -0.4242503 -0.09355441
000180 b1 1a fe be 9e cf 31 be 26 86 bb bd 92 4a 15 c0
       -0.4962974 -0.17364356 -0.09156446 -2.3326764
000190 62 b4 1e bf 8b 37 55 be 60 f0 f9 be 76 22 b5 be
       -0.6199399 -0.20821969 -0.48816204 -0.35377854
0001a0 7d fb c0 bf 47 bb 84 be b1 e4 1b be df 8b 1e be
       -1.5076748 -0.2592413 -0.15223958 -0.15483044
0001b0 33 a2 c4 be 65 bc 93 be 0c 55 84 be 85 31 d3 be
       -0.38404998 -0.2885467 -0.25846136 -0.41248718
0001c0 d3 6d 12 bf 51 fc d1 be 00 ce 74 be 10 a1 d9 be
       -0.5719883 -0.41012815 -0.23906708 -0.42505693
0001d0 2a 4b 19 be e3 31 20 3f 6e fb f5 be ad 66 c0 bd
       -0.14970079 0.6257612 -0.48043388 -0.09394584
0001e0 ed 38 6d be a8 f8 03 be e1 bc 00 be 5d 76 32 be
       -0.23166247 -0.12887824 -0.12572052 -0.17427965
0001f0 83 aa 91 be fa 27 65 be 54 79 29 be b8 41 0d c0
       -0.28450403 -0.22378531 -0.1655019 -2.2071362
000200 1c b0 cd bd 0e b4 3b be 03 54 c3 be 7e 25 f9 be
       -0.10043356 -0.18330404 -0.38150033 -0.48661417
000210 88 2c cf bf 4c 41 5a be 0c 1a 76 bf a3 0c e9 be
       -1.6185465 -0.21313971 -0.96133494 -0.45517454
000220 2a f5 72 be 76 a6 d0 be ae 59 99 be ef 51 81 c0
       -0.23726335 -0.40752 -0.29951233 -4.0412517
000230 a8 64 17 be c2 b1 71 be 12 b7 b3 be b4 d6 bc be
       -0.14784491 -0.23602965 -0.3510061 -0.36882555
000240 42 f3 d3 bd d9 fd 01 bf 63 3c c4 be 65 63 95 bd
       -0.10349132 -0.50777966 -0.3832732 -0.072943486
000250 33 20 67 be 61 d6 c9 bd 3c 6e 01 be 38 ba 9b be
       -0.22570877 -0.09855343 -0.12639707 -0.3041551
000260 0b 9b f5 be 1f f6 57 c0 bc 0c 8d bf 19 b4 9d be
       -0.4796985 -3.374397 -1.1019511 -0.30801466
000270 bc 94 62 c0 a1 fc 13 3d 7a fc 4c be 1b 2c c3 bf
       -3.540328 0.036129598 -0.20018187 -1.5247835
000280 f3 09 cf be 55 cf 0f c0 82 48 08 be a3 76 68 bd
       -0.40437278 -2.2470295 -0.1330891 -0.056753766
000290 58 c1 0e c0 e5 d0 38 be 11 e0 3d c0 b4 4d c8 bf
       -2.2305508 -0.18048437 -2.966801 -1.5648713
0002a0 d9 cb 43 bd 0b a6 93 bf 6e 11 a8 be 16 1f 95 be
       -0.047801826 -1.1535047 -0.32825798 -0.2912528
0002b0 1f 35 67 be 41 6a b8 bc 92 38 65 be d3 2f 69 be
       -0.22578858 -0.022511603 -0.22384861 -0.2277215
0002c0 9b d7 95 3d d2 83 c6 bd 80 ca 5f be 87 4a c7 be
       0.07316514 -0.096931115 -0.21854591 -0.38924047
0002d0 32 5a d9 be 30 30 70 bd 36 bd ab bd 30 6f a3 be
       -0.42451626 -0.058639705 -0.083856985 -0.31920767
0002e0 f2 1d ed be c5 02 28 bd 48 0a 93 be d0 a3 df be
       -0.4631191 -0.041018266 -0.2871878 -0.43679667
0002f0 00 9b 4e be f5 52 6d be 29 51 b4 bf 82 40 54 3d
       -0.20176315 -0.23176177 -1.4087268 0.051819332
000300 45 ad 9e be 16 8c b2 be 8d 4d ac be b5 d7 ae bd
       -0.3099157 -0.34872502 -0.33652917 -0.085372366
000310 81 ed ee bd f8 c2 b9 bd 80 c4 e5 3d 89 57 72 be
       -0.11666394 -0.090703905 0.1121912 -0.23666205
000320 84 da 84 be d3 20 06 be 02 4a 04 bf 4a a8 5b bf
       -0.25947964 -0.13098459 -0.51675427 -0.85803664
000330 9e e9 07 bf 69 cf f2 bc 80 50 d9 bd c8 aa c4 bf
       -0.53090847 -0.029639916 -0.10611057 -1.5364618
000340 6c 75 b8 bf c2 6c 78 3c b3 a5 a5 be 13 2c 04 c0
       -1.4410834 0.015162649 -0.3235298 -2.06519
000350 c3 d4 94 be 2f 66 36 c0 cf 70 23 3b b1 e8 95 bc
       -0.29068574 -2.8499868 0.0024939065 -0.018299432
000360 a8 58 6d bd de 74 92 be ad 87 b7 be 75 ea 9e be
       -0.057945877 -0.28604788 -0.358457 -0.31038252
000370 f6 60 af be a7 3e 96 be 9d 50 32 be 5f 87 6b bd
       -0.34253663 -0.29344675 -0.17413564 -0.057502147
000380 96 1a a0 be fb 6c c1 be b8 b0 1c bf 45 20 bf be
       -0.31270283 -0.37778458 -0.6120715 -0.37329307
000390 12 9d cb be 3f 0d 6f be 5f 6e 54 be 3e 9c c6 be
       -0.39768273 -0.23344897 -0.20745228 -0.38791078
0003a0 98 34 25 be 9f 62 6a be 76 d0 0f c0 b1 39 74 be
       -0.16133344 -0.22889183 -2.2470984 -0.23850133
0003b0 cc b7 3b be a1 ff a4 be 94 e0 d5 be 64 10 cb bd
       -0.18331832 -0.3222628 -0.41772902 -0.09915236
0003c0 34 35 5e be cc 3f 46 be 5d 6c a0 be e8 84 fe bd
       -0.21699983 -0.19360274 -0.31332675 -0.124276936
0003d0 3b 5a 35 be a2 dd af be d1 a3 54 bd d4 56 a0 be
       -0.17710201 -0.3434878 -0.05191404 -0.31316245
0003e0 81 af 8d be 33 29 40 3c 77 b1 77 be 22 80 29 be
       -0.2767296 0.011728573 -0.24188791 -0.16552785
0003f0 43 5a 11 3d 9b d4 93 be dc 75 c4 bd 37 8f ad 3d
       0.03548647 -0.28873143 -0.095927924 0.08474582
