cyj-racetrack-final/eval_files_racetrack/racetrack_wcsac/models/_safety_critic.pth (torch, 620323 bytes, 10 tensors)

l1.weight f4 [256, 42]
0	0x3da66f30	0.08126676
1	0xbe69f7bd	-0.22848411
2	0x3e513534	0.20430452
3	0xbfcc8bc7	-1.5980157
4	0x3f798375	0.9746621
5	0xbec66685	-0.3875009
6	0xbe915744	-0.2838689
7	0xbdfb27e3	-0.12263467
8	0xbed28879	-0.41119745
9	0xbf2cc571	-0.6748877
10	0xbea52efa	-0.32262403
11	0xbe6d38ee	-0.23166248
12	0xbebbe40b	-0.3669742
13	0xbe6f30d2	-0.23358467
14	0xbc7c9646	-0.015416687
15	0xbe470456	-0.19435248
16	0xbef4f145	-0.47840324
17	0xbefa2f28	-0.48864102
18	0x3f1c3c94	0.61029935
19	0xbf12a0e6	-0.5727676
20	0x3f1b0cf1	0.6056662
21	0x3f0b2e95	0.54367954
22	0xc01006fd	-2.2504265
23	0xbf28ff9e	-0.6601504
24	0xbf3b63e5	-0.731993
25	0xbf081560	-0.53157616
26	0xbe7649b1	-0.24051549
27	0x3d4579a8	0.048211724
28	0x3d5d23af	0.05398911
29	0x3d96e5dd	0.07368062
30	0xbcd05097	-0.025429053
31	0x3ac54bc1	0.0015052484
32	0xbe9435c2	-0.28947264
33	0xbf11edde	-0.5700358
34	0xbedff256	-0.43739575
35	0xbf173c08	-0.59075975
36	0x3e712345	0.2354861
37	0x3eb0e927	0.3455288
38	0x3f7c0ea9	0.9845987
39	0x3eea2387	0.4573023
40	0x3d47f8cc	0.048821256
41	0xbec28705	-0.37993637
42	0x3db2f08f	0.08737289
43	0xbe009487	-0.12556659
44	0xbaa1cbb0	-0.0012344029
45	0x3c54b0fd	0.01298165
46	0xbd91af78	-0.07113546
47	0xbd40ec4d	-0.047100354
48	0xbddbf652	-0.10740341
49	0xbe012178	-0.12610424
50	0xbe64525b	-0.22297041
51	0xbdcbe4dd	-0.099557616
52	0xbde9458a	-0.11390217
53	0xbd1829ce	-0.037149243
54	0xbe85e54d	-0.26151505
55	0xbdd032c5	-0.101659335
56	0xbd939eab	-0.07207998
57	0xbd46d076	-0.048538648
58	0xbdffdb1d	-0.124929644
59	0xbb321a6b	-0.002717639
60	0x3d43f5d6	0.04784187
61	0x3d00cf89	0.03144792
62	0xbe103d3e	-0.14085862
63	0xbe203dc6	-0.15648565
64	0xbcb78ab9	-0.022405015
65	0xbaa3a4bf	-0.0012485011
66	0xbb5622bd	-0.0032674514
67	0xbc6b89a2	-0.014376076
68	0xbe5d56f2	-0.21615198
69	0xbe19311f	-0.14960144
70	0x3deb04f4	0.11475554
71	0x3ca1fd60	0.019774139
72	0xbded4cbd	-0.11586902
73	0xbd36f945	-0.044671316
74	0xbe82c544	-0.25541127
75	0xbe0bcdb8	-0.13652694
76	0xbe1ac61b	-0.15114634
77	0xbe0bf44d	-0.13667412
78	0x3e3ecb80	0.18632317
79	0x3dc05320	0.09390855
80	0x3e2a656d	0.16640253
81	0xbe2c83e2	-0.16847184
82	0x3dc6425b	0.09680625
83	0x3d6d9096	0.057999216
84	0xbe75c720	-0.24001741
85	0xbce088dd	-0.027409011
86	0x3d378482	0.044804104
87	0xbe8d44f6	-0.27591676
88	0x3e26400b	0.16235368
89	0xbd6ee504	-0.058323875
90	0xbdf95e2c	-0.12176165
91	0x3e079617	0.13240848
92	0xbe111767	-0.14169084
93	0x3d4ba149	0.04971436
94	0xbe46aa9a	-0.19401017
95	0xbd97633e	-0.07391976
96	0xbe801fb4	-0.25024188
97	0x3c56980c	0.013097774
98	0xbb1c1553	-0.002381642
99	0xbe58c320	-0.21168184
100	0xbdeeb89d	-0.11656306
101	0xbd9fd230	-0.07803762
102	0xbc6e441a	-0.014542604
103	0x3cebabf4	0.028768517
104	0xbe9d3e62	-0.30711657
105	0xbdbfb512	-0.09360708
106	0xbe03ab19	-0.12858237
107	0xbdc0a6a7	-0.094067864
108	0xbebf010e	-0.37305492
109	0xbe8834d6	-0.2660281
110	0xbe0c9e90	-0.13732362
111	0xbdb0cb16	-0.086324856
112	0x3cfe5f56	0.03105132
113	0xbe16e4f2	-0.14735773
114	0xbdc7caac	-0.097554535
115	0xbd88a7e9	-0.06672651
116	0x3d8e05db	0.069347106
117	0xbe3edd73	-0.18639164
118	0xbe1997a9	-0.1499926
119	0x3e1c5050	0.15265012
120	0xbea13988	-0.31489205
121	0x39ec6f17	0.00045096196
122	0xbdd88ae4	-0.10573366
123	0x3e13d640	0.14437199
124	0xbe466907	-0.19376002
125	0x3d5ac83f	0.053413626
126	0x3d39c7ff	0.045356747
127	0xbddfb343	-0.10922863
128	0xbdbf56f7	-0.09342759
129	0xbe0729e0	-0.13199568
130	0xbe806ed8	-0.25084567
131	0xbd33903e	-0.043838732
132	0xbcf250cf	-0.029579548
133	0xbe09dacb	-0.13462369
134	0xbe2d8a16	-0.16947207
135	0x3dc2b19b	0.09506532
136	0xbe5e8348	-0.21729767
137	0xbd886d9a	-0.0666153
138	0xbe9c1bb7	-0.30489895
139	0xbe072379	-0.13197125
140	0x3dc9fa37	0.09862178
141	0xbd7b0244	-0.061281458
142	0xbdb50c64	-0.08840254
143	0xbd0c6828	-0.03427902
144	0xbe0f1607	-0.13973247
145	0x3d23f39d	0.04002725
146	0xbdc40748	-0.09571701
147	0x3d22056b	0.03955595
148	0xbdf36d26	-0.11886053
149	0xbcfd5e3a	-0.03092872
150	0xbe010031	-0.1259773
151	0xbe2f3414	-0.1710971
152	0xbe914d83	-0.2837945
153	0xbdd076c5	-0.101789035
154	0xbe15f9ca	-0.14646068
155	0xbdac3683	-0.08408835
156	0x3e17480e	0.1477358
157	0xbe7d7372	-0.2475107
158	0x3dad23e6	0.08454113
159	0x3ddf7bb6	0.10912268
160	0xbde43cf9	-0.11144442
161	0x3dd1a630	0.10236776
162	0xbd777a24	-0.060419217
163	0xbd04a599	-0.03238449
164	0xbd3f53f9	-0.046710942
165	0xbddb4481	-0.107064255
166	0xbcb9bd01	-0.022673132
167	0xbde44cca	-0.11147459
168	0x3d044291	0.032290045
169	0x3f807b94	1.0037713
170	0xc062516f	-3.5362203
171	0xc0d6a629	-6.707783
172	0xc09e1e45	-4.941195
173	0xbf926d2c	-1.1439567
174	0x3f4967f0	0.7867422
175	0x3fe0e7a6	1.7570693
176	0xbf9e44b9	-1.2364722
177	0x403bb9d4	2.933217
178	0xbde5402f	-0.11193883
179	0xbf8e469e	-1.1115301
180	0xc002cb3c	-2.0436544
181	0xbf47fcca	-0.781201
182	0x3fccd4c0	1.6002426
183	0x406a8ed2	3.664967
184	0xc0291706	-2.6420302
185	0xbdcfa069	-0.10138018
186	0xbf9f573b	-1.2448496
187	0xbe01e4f4	-0.12684995
188	0xc0f299f4	-7.581293
189	0xc04fb26e	-3.2452655
190	0x3f9d6170	1.229536
191	0xc10384c2	-8.219912
192	0x40a4a790	5.1454544
193	0xc0077f24	-2.117135
194	0xc007374e	-2.1127505
195	0x3e098ccc	0.13432616
196	0xbcd58da4	-0.026068516
197	0xbde8a9a0	-0.113604784
198	0x3d8fe221	0.070255525
199	0x3f001709	0.5003515
200	0xc0791934	-3.8921633
201	0xbf901fe7	-1.1259736
202	0xbfa64fd9	-1.2993118
203	0xc05344fb	-3.3010852
204	0xbe50772e	-0.20357963
205	0xc09d3956	-4.913249
206	0x3fb27ed2	1.3944952
207	0xbefb40ec	-0.4907297
208	0x3feb8ddd	1.8402668
209	0xc086e49d	-4.215407
210	0xbda36c28	-0.079796135
211	0x3d3ff2ac	0.04686229
212	0x3c12e423	0.008965525
213	0xbe402848	-0.18765366
214	0xbdaa7f60	-0.08325076
215	0xbd5ddd00	-0.05416584
216	0x3cbf5866	0.023357581
217	0xbde39849	-0.111130305
218	0xbc8ba4a3	-0.017046278
219	0xbde4364f	-0.11143171
220	0xbe8da794	-0.27666914
221	0xbe35db51	-0.17759444
222	0xbe496ebd	-0.1967115
223	0xbd326ac5	-0.043558855
224	0xbe5d8ed7	-0.2163652
225	0xbe29fe46	-0.16600904
226	0xbcec90d9	-0.028877662
227	0xbe4f204e	-0.20227167
228	0xbe4ee648	-0.20205033
229	0xbe158598	-0.14601743
230	0xbce5774a	-0.028010983
231	0xbe8d6bd6	-0.27621335
232	0xbdcdd90f	-0.10051166
233	0x3dbb8f68	0.09158212
234	0xba8a9394	-0.0010572546
235	0xbe4b8cc9	-0.19877924
236	0x3c2edc1e	0.010672597
237	0x3e1d81e7	0.15381585
238	0x3d654dd7	0.055982437
239	0x3d17e84e	0.037086777
240	0xbddd04a6	-0.10791902
241	0xbe202ed7	-0.15642868
242	0x3e3f137a	0.18659773
243	0xbe25d3cb	-0.16194074
244	0xbe08d27f	-0.13361548
245	0xbe1837b6	-0.14865002
246	0x3e348d7a	0.17632094
247	0x3cbed34a	0.02329411
248	0xbe2d78e0	-0.16940641
249	0xbdfe697a	-0.12422462
250	0xbcf6b7b7	-0.030116899
251	0xbe2976b5	-0.1654919
252	0x3e0755e8	0.13216364
253	0x3d8a3f29	0.06750328
254	0xbdf3c41f	-0.119026415
255	0xbe0c2cc2	-0.13688949

l1.bias f4 [256]
0	0xbeb27ed5	-0.3486239
1	0xbe43f9e6	-0.19138297
2	0xbdc26235	-0.09491388
3	0xbe2c6b30	-0.16837764
4	0xbffb4321	-1.9629861
5	0xbe057d7d	-0.13036151
6	0xbed5d5a4	-0.41764557
7	0xbd9fd4c9	-0.078042574
8	0xc0185492	-2.3801618
9	0xbe13d14c	-0.14435309
10	0xbe5ca3b9	-0.2154683
11	0xbe886fc8	-0.26647782
12	0xbd4b8b7f	-0.04969358
13	0xbe93fba3	-0.2890292
14	0xbd1da050	-0.038482964
15	0xbd3c1c48	-0.04592541
16	0xbf712a5b	-0.94205254
17	0xbee208a7	-0.44147226
18	0xbdd6fb54	-0.10497156
19	0xc00e9e1a	-2.2283998
20	0xc00494f4	-2.0715914
21	0xbe4c3918	-0.19943655
22	0xbe508ce2	-0.20366243
23	0xbdc4ccd4	-0.0960938
24	0xbced6a57	-0.02898137
25	0xbe7461e6	-0.2386547
26	0xbe046470	-0.12928939
27	0x3d5d2dc5	0.053998727
28	0xbe9ccae8	-0.30623555
29	0x3f4e7c51	0.8065844
30	0xbef3610b	-0.47534975
31	0xbeb7e5dc	-0.35917556
32	0xbd8128e7	-0.0630663
33	0xbeeaf80b	-0.45892367
34	0xbd9fbbf4	-0.07799521
35	0xc046e293	-3.107579
36	0xbf2d270d	-0.6763771
37	0xbd816221	-0.06317545
38	0xbe8c9811	-0.27459767
39	0xbe00727c	-0.12543672
40	0xbfa90800	-1.3205566
41	0xbf189e4f	-0.5961656
42	0xbc4a312e	-0.012340827
43	0xbf1fbabe	-0.6239432
44	0xbfe18882	-1.7619784
45	0xbea93f2e	-0.33056015
46	0xbe02f0c4	-0.12787157
47	0xbea71dba	-0.32639867
48	0xbe82abd6	-0.25521725
49	0xbe6e4970	-0.23270202
50	0xbeab0ae7	-0.33406755
51	0xbe007bd6	-0.1254724
52	0xbf7c18c6	-0.984753
53	0xbe78ea11	-0.24308039
54	0xbe0192c2	-0.1265364
55	0xbe992ea0	-0.29918385
56	0xbdc56699	-0.096387096
57	0xbe135bc1	-0.1439047
58	0xbc9f552a	-0.01944979
59	0xbea0de19	-0.31419447
60	0xbed81781	-0.42205432
61	0xbe917f35	-0.28417364
62	0xbfc0d031	-1.5063535
63	0xbd80a755	-0.06281916
64	0xbd8fd257	-0.07022541
65	0xbe8ffbba	-0.2812174
66	0xbcba7b30	-0.022763819
67	0x3c6d5058	0.0144844875
68	0xbe80eaf5	-0.25179258
69	0xbd62908e	-0.05531364
70	0x3da20e07	0.07912832
71	0xbe3e0b1b	-0.18558924
72	0x3d140e7b	0.036146622
73	0x3c732c03	0.014842036
74	0x3e1b34c9	0.15156855
75	0xbe5a6ab4	-0.21329767
76	0xbe737c01	-0.23777772
77	0xbdbd58f7	-0.09245484
78	0xbf90bb31	-1.1307126
79	0xbed015bc	-0.40641582
80	0xbe55984a	-0.20858875
81	0xbf1bed99	-0.6090942
82	0xbee2dcc6	-0.44309062
83	0xbfe81489	-1.8131267
84	0xbdca9fa8	-0.09893733
85	0xbe24000a	-0.1601564
86	0xbe9791eb	-0.29603514
87	0xbc327b05	-0.010893588
88	0xbeaa0c6b	-0.332126
89	0xbe5e8fdf	-0.2173457
90	0xbe0ef1e8	-0.13959467
91	0xbff95dd8	-1.9481764
92	0xbe51aa4f	-0.20475124
93	0xbebaac3d	-0.36459532
94	0xbdcd7fbd	-0.1003413
95	0xbeddf130	-0.43348074
96	0xc01c8910	-2.4458656
97	0xbe8f54e0	-0.27994442
98	0xbf4d4aa0	-0.80191994
99	0xc02e3995	-2.7222645
100	0xbeeab971	-0.45844606
101	0xc096c02a	-4.7109575
102	0xbec162ba	-0.37770635
103	0xbe2784c9	-0.16359247
104	0xbe9edff1	-0.3103023
105	0xbe58a004	-0.21154791
106	0xbefa0654	-0.48832953
107	0xbe753f1f	-0.2394986
108	0xbf0c6185	-0.54836303
109	0xbe2a3373	-0.16621189
110	0xbe247c7d	-0.16063114
111	0xbff8556d	-1.940107
112	0xbeca8336	-0.3955323
113	0xbe55670b	-0.20840089
114	0xc0235377	-2.5519693
115	0xbdd5d2f2	-0.10440625
116	0xbf20739a	-0.62676394
117	0xbe557c8f	-0.20848297
118	0xbed3b656	-0.4135005
119	0xbeaa54f2	-0.33267933
120	0xbde497c0	-0.111617565
121	0xbd733368	-0.059375197
122	0xbe63dfa5	-0.22253282
123	0xbee54234	-0.4477707
124	0xbe2abfed	-0.16674776
125	0xbf089e15	-0.53366214
126	0xc0051f8e	-2.080051
127	0xbeb336b5	-0.35002676
128	0xbdc36ac9	-0.09541852
129	0xbffd8a5c	-1.9807849
130	0xbf9de214	-1.2334619
131	0xbf00d5eb	-0.5032641
132	0xbf9d3c8d	-1.2284104
133	0xbff96a28	-1.9485521
134	0xbfa17ac2	-1.2615588
135	0xbe25d43f	-0.16194247
136	0xbe3fcc60	-0.18730307
137	0xbd893f33	-0.067015074
138	0xbea48f5a	-0.3214062
139	0xbf8f193f	-1.117958
140	0xc012854b	-2.2893856
141	0xbe4fb033	-0.20282058
142	0xbebd7359	-0.37002066
143	0xbe3e693b	-0.1859483
144	0x3d92330e	0.07138644
145	0xbea1675f	-0.31524178
146	0xbdc94cee	-0.09829126
147	0xbd862008	-0.06549078
148	0xbf132856	-0.5748342
149	0xbe81d52c	-0.2535795
150	0xbf08754a	-0.5330397
151	0xc0276349	-2.615435
152	0xbe2c4163	-0.16821818
153	0xc0740595	-3.8128407
154	0xbedbc6c2	-0.42925078
155	0xbee3cea8	-0.44493604
156	0xbd901c97	-0.07036703
157	0x3d93c02d	0.07214389
158	0xbe4973ab	-0.1967303
159	0xbe020f9e	-0.1270127
160	0xbe40d2fb	-0.18830483
161	0xbdd3efc6	-0.103484675
162	0xbdf2ca1a	-0.11854954
163	0xbe87facd	-0.26558533
164	0xc06c272e	-3.6898913
165	0xbe59aa83	-0.21256451
166	0xbfb531db	-1.415584
167	0xbff26706	-1.893769
168	0xbdcc7519	-0.09983272
169	0xbe8956ac	-0.26823938
170	0xbe385454	-0.18000919
171	0xbd3f95c4	-0.046773687
172	0xbeaa18e0	-0.33222103
173	0xbe316489	-0.17323507
174	0xbf87d612	-1.0612204
175	0xbd5d6657	-0.054052677
176	0xbe3df102	-0.18548968
177	0xbe6c4bd8	-0.23075807
178	0xbd197a52	-0.03747017
179	0xbe046793	-0.12930135
180	0xbe7bce8c	-0.2459051
181	0xbe9491bb	-0.29017434
182	0xbd8fe1a4	-0.070254594
183	0xbd89be82	-0.067257896
184	0xbe67924d	-0.22614403
185	0xbe30eee6	-0.17278633
186	0xbeaaae97	-0.33336326
187	0xbe041385	-0.12898071
188	0xbff95b1f	-1.9480933
189	0xbe343fb0	-0.1760242
190	0xbc168d6a	-0.009188989
191	0xbfa3c274	-1.2793717
192	0xbc4a1cc4	-0.01233596
193	0xbe52612d	-0.20544882
194	0xbd8be9e2	-0.06831719
195	0xbe96657b	-0.29374298
196	0xbd7bbcfb	-0.061459523
197	0xbdf61118	-0.12014979
198	0xbf230c37	-0.63690513
199	0xbed2ecaa	-0.41196185
200	0xbe3905b5	-0.18068583
201	0xbec61140	-0.38685036
202	0xbe8c5aeb	-0.27413115
203	0xbecb851c	-0.39749992
204	0xbe3fbd11	-0.18724467
205	0xc00afd81	-2.1717227
206	0xbe1bdb6c	-0.15220422
207	0xbf02a34b	-0.51030415
208	0xbe94d7d7	-0.29070923
209	0xbe22165d	-0.15828843
210	0xbeac9a91	-0.33711675
211	0xbf1e83bc	-0.6191976
212	0x3dab7dd9	0.08373613
213	0xbe372051	-0.17883421
214	0xbe9ad760	-0.30242443
215	0xbe55bf7f	-0.20873831
216	0xbff0b8ed	-1.8806435
217	0xbc6d82b6	-0.014496496
218	0xbf63bba5	-0.889582
219	0xbf020f5b	-0.5080468
220	0xbf3b47af	-0.73156255
221	0x3d031e2e	0.032011203
222	0xbf08bf38	-0.53416777
223	0xbd88a60b	-0.06672295
224	0xc0266e24	-2.6004725
225	0xbeb977f3	-0.36224326
226	0xbe56a93a	-0.20962992
227	0x3d2107b7	0.039313998
228	0xbf5e67c4	-0.86877084
229	0xbe649b77	-0.2232493
230	0xbdf81184	-0.12112716
231	0xc04627c9	-3.0961783
232	0x400881b6	2.132917
233	0xbf505f14	-0.8139508
234	0xbef5e6d5	-0.48027673
235	0xbec736fe	-0.38909143
236	0xbfe513d9	-1.7896682
237	0xbe824e35	-0.25450292
238	0xbba2b0b9	-0.0049649146
239	0xbe0723aa	-0.13197199
240	0xbe85442f	-0.26028582
241	0xbe870129	-0.26368073
242	0xbe2ef30e	-0.17084906
243	0xbe8e664d	-0.27812424
244	0xbe1bcb52	-0.1521428
245	0xbdb2383a	-0.087021306
246	0xbdc51ac5	-0.096242465
247	0xbe251641	-0.1612177
248	0xbcc53700	-0.024074078
249	0x3eee3664	0.46525872
250	0x3c9dd131	0.01926479
251	0xbf35f5d2	-0.7107822
252	0xbe5add71	-0.21373536
253	0xbe8cf3d4	-0.27529776
254	0xbdf15983	-0.11784651
255	0xbdcc0202	-0.099613205

l2.weight f4 [256, 256]
0	0x3e2226af	0.15835069
1	0x3d1887a2	0.037238725
2	0x3d5c391e	0.05376541
3	0x3cd20d0c	0.025640987
4	0xbe5cdf81	-0.21569635
5	0xbd04b572	-0.032399602
6	0xbc59efd8	-0.013301812
7	0xbce304f0	-0.027712315
8	0xbd995113	-0.07486167
9	0xbe0cfda0	-0.13768625
10	0x3e10b73b	0.14132397
11	0x3c21fb30	0.009886548
12	0x3d3928f0	0.045205057
13	0x3d121b50	0.03567058
14	0xbc71de28	-0.014762439
15	0x3c8aa264	0.016923137
16	0xbec9b4f8	-0.3939588
17	0xbbf61580	-0.007509887
18	0xbd6d48d4	-0.057930782
19	0xbe3cf055	-0.18451054
20	0xbdb00898	-0.08595389
21	0xbe20eccb	-0.1571533
22	0xbc596040	-0.013267577
23	0xbe5e7be5	-0.2172695
24	0x3d4ebbe0	0.05047214
25	0x3d2c98fc	0.042138085
26	0x3c851974	0.016247489
27	0xbcf94f48	-0.030433312
28	0xbe5534aa	-0.20820871
29	0xbe835ef1	-0.25658372
30	0xbea6050a	-0.3242572
31	0x3d4ed8e6	0.05049982
32	0xbc7e6f98	-0.015529536
33	0xbd0ce74a	-0.034400262
34	0xbd2bd0a4	-0.041947022
35	0xbe278dbe	-0.16362664
36	0x3d4eb074	0.050461248
37	0xbd3f78d8	-0.046746105
38	0xbd784a02	-0.060617454
39	0x3a47f580	0.000762783
40	0xbc28932a	-0.010288993
41	0xbd3cf022	-0.046127446
42	0xbd6fb756	-0.058524452
43	0x3d072da2	0.033002503
44	0xbe8fecf4	-0.28110468
45	0x3d4f59e1	0.050622825
46	0xbb1943a0	-0.0023386255
47	0xbceb2ebd	-0.02870881
48	0xbd1928e6	-0.03739252
49	0xbd0f5eb6	-0.035002433
50	0x3d33c1de	0.043886058
51	0x3d989d67	0.07451897
52	0xbe10bbac	-0.14134091
53	0x3d13d976	0.03609606
54	0x3b121500	0.002229035
55	0x3c8826c8	0.016620055
56	0xbb708efc	-0.003670632
57	0x3c8f66d1	0.017505081
58	0x3d473204	0.048631683
59	0xbd69239a	-0.056918718
60	0xbd85b02a	-0.06527741
61	0x3e143427	0.1447302
62	0xbcd3871b	-0.02582126
63	0x3ce7c648	0.02829279
64	0x3d04c644	0.032415643
65	0xbdbbaf8e	-0.09164344
66	0xbbdee420	-0.006802097
67	0xbd60acd0	-0.054852307
68	0xbe19b786	-0.15011415
69	0x3c7da3f8	0.015480988
70	0xbc991e00	-0.018691063
71	0xbd0558b8	-0.032555312
72	0xbc9481c0	-0.018128276
73	0xbc67de70	-0.014152154
74	0xbf0d247d	-0.551338
75	0xbdbacc54	-0.09121004
76	0x3bf15970	0.007365398
77	0xbd67f522	-0.05663026
78	0xbe568143	-0.20947747
79	0xbd5d80c0	-0.054077864
80	0xbd48ca48	-0.049021035
81	0xbe7a6700	-0.24453354
82	0x3c6b5ea8	0.0143658295
83	0xbeb7e72b	-0.35918555
84	0xbc7dc8d0	-0.015489772
85	0xbd46e745	-0.0485604
86	0xbd519286	-0.051165126
87	0xbda18895	-0.07887379
88	0xbd46bb26	-0.048518322
89	0x3d0569ba	0.03257153
90	0xbd18ac50	-0.037273705
91	0xbe81dee2	-0.2536536
92	0xbd373f4c	-0.0447381
93	0x3c11c0c8	0.00889606
94	0xbcd4389c	-0.0259059
95	0xbd0a8ba0	-0.033824563
96	0xbebb64ac	-0.36600244
97	0xbb04e020	-0.002027519
98	0xbeac5598	-0.33659053
99	0xbf1ffbc4	-0.6249354
100	0x3e4cf3c3	0.20014863
101	0xbe000dc6	-0.12505254
102	0xbe8fa9fe	-0.2805938
103	0x3d7c9c96	0.06167277
104	0xbe5c238a	-0.21497932
105	0x3d570cc2	0.0525024
106	0x3d5608bc	0.052254423
107	0x3d6c2172	0.057649083
108	0xbba66f66	-0.0050791977
109	0xbeb82ac0	-0.35970116
110	0x3d3706ee	0.044684343
111	0xbebe75dd	-0.37199298
112	0xbdc71ac9	-0.09721906
113	0x3d1aa30e	0.037753157
114	0xbe3b52cb	-0.18293302
115	0xbd33efae	-0.04392975
116	0x3d13671a	0.035986997
117	0x3d3a64a0	0.04550612
118	0x3c3d0950	0.011537865
119	0x3b3e7120	0.0029059127
120	0x3e063018	0.13104284
121	0xbc4818c8	-0.01221294
122	0x3cd4c67c	0.025973551
123	0x3b3fc820	0.002926357
124	0xbb831530	-0.0040003285
125	0x3d9fcb02	0.078023925
126	0xbec81438	-0.39077926
127	0xbd5d0a1e	-0.053964727
128	0x3cb446e0	0.022006452
129	0xbe0a7294	-0.1352027
130	0xbe0fd333	-0.1404541
131	0x3d4d5c12	0.050136633
132	0xbe2bc583	-0.16774563
133	0xbe4e28eb	-0.20132796
134	0x3d71d094	0.059036806
135	0xbdf5d110	-0.12002766
136	0xbd097b66	-0.033564948
137	0x3d6b2bfe	0.057415
138	0x3d2bccd3	0.041943382
139	0xbe108ee2	-0.14117005
140	0x3d5384e5	0.05164041
141	0x3c009808	0.007848747
142	0x3d561c66	0.052273177
143	0x3d633dee	0.055478983
144	0x3d0bbf14	0.034117773
145	0xbdad7dd2	-0.08471264
146	0xbca34a48	-0.019932881
147	0xbcf5423c	-0.02993881
148	0xbe261c3d	-0.1622171
149	0xbddf2897	-0.10896414
150	0x3b1db640	0.0024064928
151	0xbe14a477	-0.14515863
152	0x3ccc43f4	0.024934746
153	0xbd809cea	-0.06279929
154	0x3d7aaa30	0.06119746
155	0x3b15f6e0	0.0022882745
156	0x3e14a8a1	0.14517452
157	0xbd9463a8	-0.072455704
158	0xba8fe0c0	-0.0010977015
159	0xbc01c5a8	-0.00792066
160	0x3ba95a10	0.005168207
161	0x3cde0c0c	0.027105354
162	0x3e154ccc	0.14580077
163	0xbd1ca204	-0.038240448
164	0xbe9af602	-0.30265814
165	0xbb480ac0	-0.0030523986
166	0xbe9a5055	-0.30139413
167	0xbe8a0f6f	-0.269649
168	0x3d7ddf3e	0.06198048
169	0xbd0e9d4a	-0.03481797
170	0x3d59467a	0.053045727
171	0x3baf46f0	0.0053490326
172	0xbba93d30	-0.005164765
173	0x3d638304	0.055544868
174	0x3c9a74f0	0.018854588
175	0x3d18c0f6	0.037293397
176	0xbd298286	-0.041384242
177	0x3d677308	0.056506187
178	0x3bf5eac0	0.007504791
179	0x3cae3d48	0.021269456
180	0x3d3d384a	0.04619626
181	0xbd1f4c90	-0.038891375
182	0x3c291c48	0.010321684
183	0xbde2e163	-0.11078145
184	0x3d48002e	0.048828296
185	0xbda94fd0	-0.08267176
186	0xbccfecd8	-0.02538149
187	0x3d5dcd1e	0.054150693
188	0xbe0bf657	-0.1366819
189	0xbd0d7196	-0.034532152
190	0xbd01fb30	-0.03173369
191	0xbf3b3dc8	-0.73141146
192	0xbca5ee94	-0.020255364
193	0xbca31cfc	-0.019911282
194	0xbaa9dc40	-0.0012959316
195	0xbd2b10da	-0.041764118
196	0x3dbe23f0	0.09284198
197	0xbc915cb4	-0.0177444
198	0x3c0fe070	0.008781537
199	0x3c8858b8	0.016643867
200	0xbdb5420c	-0.08850488
201	0x3de6b88b	0.112656675
202	0x3d62c026	0.05535903
203	0x3d61c3ec	0.055118486
204	0x3b389460	0.002816461
205	0xbd714bd8	-0.05891022
206	0x3b140800	0.0022587776
207	0xbe6e1953	-0.23251848
208	0xbb7ae440	-0.003828302
209	0x3d64900c	0.055801436
210	0x3ceeeaf4	0.029164769
211	0xbdbfcb2b	-0.09364923
212	0xbd6b50ce	-0.05745011
213	0xbd1a44fe	-0.037663452
214	0xbe843b00	-0.25826263
215	0xbdabbbf6	-0.0838546
216	0xbe8d8426	-0.27639884
217	0x3d66bafe	0.056330673
218	0x3c80e030	0.0157319
219	0xbb792f40	-0.0038022548
220	0xbe0fe18d	-0.14050885
221	0x3d2e2b4a	0.042521752
222	0x3c910590	0.017702848
223	0x3d5d3b06	0.054011367
224	0xbe450898	-0.1924156
225	0xbd14d852	-0.03633911
226	0x3dd5a2d9	0.10431451
227	0x3c47e580	0.012200713
228	0x3d89c6b4	0.06727353
229	0x3d3ba488	0.045811206
230	0xbd184762	-0.03717745
231	0xbf09fac8	-0.53898287
232	0xbf6c93e4	-0.92413163
233	0xbe4daa07	-0.20084392
234	0xbc87acb4	-0.016561843
235	0x3d2783fe	0.040897362
236	0xbe59d758	-0.21273553
237	0xbbfd5b30	-0.0077318177
238	0xbc441720	-0.011968404
239	0x3c3d4eb8	0.011554413
240	0x3bf9dc1d	0.0076251165
241	0xbe01f5f8	-0.12691486
242	0xbd3010da	-0.04298482
243	0x3d049334	0.032366946
244	0xbd0c2c38	-0.034221858
245	0x3ce883a4	0.028383084
246	0x3bf7d9f0	0.007563822
247	0xbd31108e	-0.04322868
248	0xbdab4246	-0.0836225
249	0xbe439a33	-0.19101791
250	0xbd2191fe	-0.03944587
251	0x3e299aa5	0.16562898
252	0xbc822d10	-0.015890628
253	0xbe4a5c5d	-0.19761796
254	0xbd68245c	-0.0566753
255	0x3c80d88c	0.015728258

l2.bias f4 [256]
0	0xbf3e71ab	-0.74392194
1	0xbf66e9eb	-0.9020068
2	0xbeac3079	-0.33630732
3	0xbfa7e4a2	-1.3116648
4	0xbf7d31ee	-0.9890431
5	0xbfa2c4b0	-1.2716274
6	0xbf9f642e	-1.2452447
7	0xbf8372d1	-1.0269414
8	0xbf514f3a	-0.81761515
9	0xbee7612f	-0.45191333
10	0xbea61ebd	-0.32445326
11	0xc034f960	-2.8277206
12	0xbdc02275	-0.09381572
13	0xbed45b9e	-0.41476148
14	0xbf93e617	-1.1554593
15	0xbede6386	-0.43435305
16	0xc03e1552	-2.9700513
17	0xbf3a8924	-0.7286551
18	0xbf1bf975	-0.60927516
19	0xbf7e0936	-0.99232805
20	0xbfaac62d	-1.3341728
21	0xbebcff19	-0.36913374
22	0xbf8387b5	-1.027579
23	0xbf96effc	-1.1791987
24	0xc083eb86	-4.1225004
25	0xbf45fe0a	-0.7734076
26	0xbf92360c	-1.1422744
27	0xbee76bde	-0.45199484
28	0xbf90e419	-1.131961
29	0xbf0e0e49	-0.5549055
30	0xc00afa2f	-2.17152
31	0xbf3968d3	-0.72425574
32	0xbd4c3db1	-0.04986352
33	0xc035280a	-2.8305688
34	0xbf800d7f	-1.0004119
35	0xbf90feb2	-1.1327727
36	0xbe8f2fb7	-0.2796609
37	0xbece3e03	-0.40281686
38	0xc0167d66	-2.3514037
39	0xbf2dfe78	-0.67966413
40	0xbfecd772	-1.8503249
41	0xbf8cbba9	-1.0994769
42	0xbed85678	-0.4225347
43	0xc032c629	-2.7933447
44	0xbdc64ef9	-0.096830316
45	0xbfa622f0	-1.2979412
46	0xbf35c4b4	-0.7100327
47	0xbeb581ad	-0.35450497
48	0xbf6ad22b	-0.9172694
49	0xbf6d4471	-0.9268256
50	0xba342aa7	-0.0006872811
51	0xbf9687ef	-1.1760234
52	0xbf737fdd	-0.9511698
53	0xbfdc7e91	-1.7226125
54	0xc1205489	-10.020638
55	0xbf8109af	-1.008108
56	0xbe61847e	-0.22023198
57	0xbf1c1633	-0.60971373
58	0xbea2850b	-0.3174213
59	0xbfef03ad	-1.8672997
60	0xbf817703	-1.0114444
61	0xbf6644d4	-0.89948773
62	0xbede06e3	-0.4336463
63	0xbf4aa91a	-0.7916428
64	0xbf5cb384	-0.8621142
65	0xbf083b87	-0.5321583
66	0xbff2df5f	-1.8974417
67	0xbf58634f	-0.8452653
68	0xc00055ff	-2.0052488
69	0xbec88045	-0.39160362
70	0xbed69c3a	-0.41916066
71	0xc02d3574	-2.7063875
72	0xbfa897e5	-1.3171355
73	0xbea87f8e	-0.32909817
74	0xbfb280d3	-1.3945564
75	0xbf70bd2a	-0.9403864
76	0xbec366b5	-0.38164297
77	0xbf713d27	-0.94233936
78	0xbfd8967e	-1.6920927
79	0xbf0762c3	-0.52885073
80	0xbf246da4	-0.642298
81	0xc053f065	-3.3115475
82	0xbf62c304	-0.8857882
83	0xbf85a0f6	-1.0439746
84	0xc019ae9b	-2.401282
85	0xbd86ea21	-0.06587625
86	0xc0593801	-3.3940432
87	0xbed45c0c	-0.41476476
88	0xbf20b187	-0.62770885
89	0xbfdee069	-1.7412235
90	0xbeac1518	-0.33609843
91	0xbfa53605	-1.290711
92	0xbf606a2c	-0.87662005
93	0xbd245987	-0.040124442
94	0xbe3511f4	-0.1768263
95	0xbedf95ac	-0.43668878
96	0xc02dc4f6	-2.7151465
97	0xbebaaf8e	-0.36462063
98	0xc0540f5c	-3.3134375
99	0xbf857337	-1.0425786
100	0xbfa5d5c5	-1.2955862
101	0xbf11b75d	-0.56920415
102	0xbe12656e	-0.14296505
103	0xbfa176ad	-1.2614342
104	0xbf799d49	-0.97505623
105	0x3f02eb33	0.51140136
106	0xbf93baed	-1.154142
107	0xbf122e6f	-0.571021
108	0xbf23905e	-0.6389216
109	0xbf5af87f	-0.85535425
110	0xc00ce622	-2.2015462
111	0xc01fc49b	-2.4963748
112	0xbf223850	-0.63367176
113	0xbedaf492	-0.42764717
114	0xbe5eb4d7	-0.21748672
115	0xc06071e3	-3.506951
116	0xbf77d72f	-0.9681272
117	0xbf1fefe2	-0.6247541
118	0xbf1bb07c	-0.6081617
119	0xbed29174	-0.41126597
120	0xbf60a1c5	-0.8774684
121	0xbebff471	-0.37491181
122	0xbfde1637	-1.735053
123	0xbf2575e0	-0.6463299
124	0xbe72985f	-0.23690937
125	0xc0b1ab71	-5.552178
126	0xbf3201fc	-0.6953428
127	0xbf39c1de	-0.7256144
128	0xbf9a8a18	-1.2073393
129	0xbf3eabf1	-0.7448111
130	0xbfcd7c03	-1.605347
131	0xbf6e23d3	-0.93023413
132	0xbf171335	-0.5901368
133	0xbfcfeb46	-1.6243675
134	0xbf1dfbbf	-0.6171226
135	0xbee9d0df	-0.45667168
136	0xbf1b94d8	-0.6077399
137	0xbe906c64	-0.28207695
138	0xbed78a9c	-0.42097938
139	0xbfee8cdf	-1.863674
140	0xbed43dc5	-0.41453376
141	0xc019381e	-2.3940501
142	0xc11b21f1	-9.695786
143	0xbf5c34ca	-0.8601805
144	0xbfd81c1a	-1.6883576
145	0xbf30f2a9	-0.6912027
146	0xbed82017	-0.42211983
147	0xbf24038e	-0.64067924
148	0xbeedbb4e	-0.46431965
149	0xbec37ebc	-0.38182628
150	0xbef7a468	-0.4836762
151	0xbfdbfa3b	-1.7185739
152	0xbf28269e	-0.65683925
153	0xbf5f9660	-0.8733883
154	0xc055217f	-3.3301694
155	0xbf83cdf5	-1.0297228
156	0xbf19ff16	-0.60154855
157	0xbf487869	-0.7830873
158	0xbee62e53	-0.44957218
159	0xbef96712	-0.4871145
160	0xbfbeba06	-1.490052
161	0xbf519791	-0.81871897
162	0xbf4e5504	-0.80598474
163	0xbee67864	-0.45013726
164	0xbee16657	-0.44023392
165	0xc018b1f0	-2.3858604
166	0xbf5be4e2	-0.8589612
167	0xbf847056	-1.0346782
168	0xbe8324b8	-0.25613952
169	0xbec59875	-0.38592878
170	0xbf472208	-0.777863
171	0xbee9533a	-0.4557131
172	0xc0aff4ae	-5.498618
173	0xbf8532a8	-1.0406084
174	0xbfba868f	-1.4572314
175	0xbdfe5b52	-0.12419762
176	0xbf1b4c26	-0.6066307
177	0xbf2b816d	-0.66994363
178	0xbfaff89b	-1.3747743
179	0xbecc082f	-0.39849994
180	0xbf8ca421	-1.0987588
181	0xbec1cc53	-0.378512
182	0xbf104ea4	-0.56369996
183	0xbe90095e	-0.28132147
184	0xbf0a4ef4	-0.5402672
185	0xbf08c547	-0.5342602
186	0xbf6b3df2	-0.91891396
187	0xc02ff3f6	-2.7492652
188	0xbea4ad14	-0.32163298
189	0xbf152942	-0.5826608
190	0xbed65ce1	-0.41867736
191	0xbf77cbdc	-0.9679544
192	0xbeda9b4c	-0.42696607
193	0xbebf99a2	-0.374219
194	0xbebb213b	-0.3654879
195	0xbf1f210b	-0.62159795
196	0x40a4d06a	5.150441
197	0xc0386849	-2.881365
198	0xc00f2aa6	-2.236978
199	0xbec904fa	-0.3926161
200	0xc0b15014	-5.541025
201	0xbed52dd9	-0.4163654
202	0xbf8a5b45	-1.0809103
203	0xbfadf138	-1.3589239
204	0xc042ce27	-3.0438325
205	0xbf906445	-1.12806
206	0xbf73b532	-0.9519836
207	0xbf95ddef	-1.1708354
208	0xbf0be3c1	-0.546444
209	0xbf5ccf9b	-0.8625428
210	0xbec7dc8c	-0.3903545
211	0xbff9b26e	-1.9507577
212	0xbf5cf6bb	-0.8631398
213	0xbf9ae9c9	-1.2102596
214	0xbf38a92a	-0.72133124
215	0xbed10fbe	-0.40832323
216	0xc0336bc7	-2.8034532
217	0xbeb0862d	-0.34477368
218	0xbeda6c24	-0.4266063
219	0xbfcd2d23	-1.60294
220	0xbf625a5d	-0.88419133
221	0xbf324cfb	-0.6964871
222	0xbe23b36a	-0.1598641
223	0xc00fea89	-2.24869
224	0xbef0309d	-0.4691209
225	0xbf597f8f	-0.84960264
226	0xbf38213e	-0.71925724
227	0xbf2d96ac	-0.6780803
228	0xbfd8e1fd	-1.6943966
229	0xc02aedff	-2.6707761
230	0xbf07bf31	-0.5302611
231	0xbf955941	-1.1667863
232	0xbecb3ad2	-0.39693314
233	0xbf7d0b05	-0.9884494
234	0xbf90b5b5	-1.1305453
235	0xc00c6b42	-2.1940465
236	0xc010eca0	-2.2644424
237	0xbf7766ef	-0.9664144
238	0xbf6c63cc	-0.9233978
239	0xc00f4f07	-2.2391984
240	0xbf2a67b2	-0.66564476
241	0xc0bcea7f	-5.903625
242	0x3f572795	0.8404477
243	0xbeb366de	-0.3503942
244	0xbefa6e65	-0.4891235
245	0xbee92dd5	-0.4554278
246	0xbf47763b	-0.7791478
247	0xbefd469c	-0.49467933
248	0xbee516b1	-0.44743875
249	0xbfc208e8	-1.5158968
250	0xbf20922d	-0.62723047
251	0xbf0834ea	-0.5320574
252	0xbdf22cfa	-0.11824985
253	0xbfa41780	-1.2819672
254	0xbf63c6a0	-0.8897495
255	0xbffc8868	-1.9729128

l3.weight f4 [1, 256]
0	0x3e814c47	0.25253507
1	0x3e2ecadf	0.17069577
2	0xbe8614cf	-0.2618775
3	0x3df8a8be	0.1214156
4	0xbc4f24b4	-0.012643028
5	0xbe5ae9b3	-0.21378212
6	0xbdab3bce	-0.08361016
7	0x3c21d540	0.009877503
8	0xbe9809c4	-0.2969495
9	0x3e83e8be	0.25763506
10	0x3d7a8c62	0.061169036
11	0xbe3903aa	-0.18067804
12	0xbd65b847	-0.056083944
13	0x3e89922e	0.2686934
14	0x3e86cd78	0.26328635
15	0x3e287645	0.16451366
16	0xbe75c78c	-0.24001902
17	0xbdb816b7	-0.089887075
18	0x3dfc5087	0.12320047
19	0xbe088fab	-0.13336055
20	0x3e936a11	0.2879186
21	0xbe9bd767	-0.30437776
22	0xbe8d87c5	-0.27642646
23	0xbb82b50d	-0.003988868
24	0x3e72bd5e	0.2370505
25	0xbcbe31b1	-0.023217054
26	0x3be069b2	0.0068485374
27	0x3eaee0dd	0.34155932
28	0x3e873dad	0.26414242
29	0xbc6a3e4a	-0.014297077
30	0xbe6b5a63	-0.22983699
31	0x3d2b08e9	0.041756544
32	0xbd543e92	-0.051817484
33	0xbdf81a1d	-0.12114356
34	0x3dff33a1	0.12461019
35	0x3e8fc135	0.28077093
36	0x3e69da00	0.22837067
37	0xbe2c506a	-0.1682755
38	0xbe53812e	-0.20654747
39	0x3e93c20b	0.2885898
40	0x3d13a7a1	0.036048535
41	0xbe485942	-0.19565299
42	0x3e9bb3cc	0.30410612
43	0x3e704c55	0.23466618
44	0x3c71883f	0.014741956
45	0xbda640fa	-0.08117862
46	0xbb8d7769	-0.0043172133
47	0xbe8f5d74	-0.28000987
48	0x3d641831	0.055687133
49	0xbe4a0daf	-0.19731782
50	0x3cef7712	0.029231582
51	0x3e6e4461	0.23268272
52	0x3e79ed8f	0.24407028
53	0xbd4706b3	-0.048590373
54	0x3b6dc7d2	0.0036282432
55	0xbe012878	-0.12613094
56	0x3e839463	0.25699148
57	0x3e26140b	0.16218583
58	0x3e5e8fdf	0.2173457
59	0x3e689a94	0.22715217
60	0xbb9828b5	-0.0046435245
61	0xbe6f193e	-0.23349473
62	0x3e9319b4	0.28730547
63	0xbe516c35	-0.20451434
64	0x3d99a5e6	0.07502346
65	0xbe316765	-0.17324598
66	0xbe0ac509	-0.13551725
67	0x3d267166	0.04063549
68	0xbda3a052	-0.07989563
69	0x3e25fa34	0.16208726
70	0x3e94ce04	0.29063427
71	0x3e11d423	0.1424108
72	0xbd623dc5	-0.05523469
73	0xbe85a3c2	-0.261015
74	0xbaa48c01	-0.0012553931
75	0xbd943efb	-0.07238575
76	0x3e8e8e0e	0.27842754
77	0x3e4576fe	0.19283673
78	0x3d18d586	0.037313007
79	0x3d40c541	0.047063116
80	0xbd7a7597	-0.0611473
81	0xbd31bb8d	-0.043391753
82	0x3ea2c12c	0.31788003
83	0xbe8ea39a	-0.27859193
84	0x3e9a3d72	0.30125004
85	0xbd0a3c5a	-0.033748962
86	0xbdb4ad3c	-0.08822104
87	0x3e387769	0.18014301
88	0xbde19fab	-0.110167824
89	0xbdd13e76	-0.102169916
90	0xbe47886e	-0.19485638
91	0x3d3feaa7	0.04685464
92	0x3d764680	0.060125828
93	0x3d20161f	0.039083596
94	0xbcd23bca	-0.025663275
95	0x3e9b7b3f	0.30367467
96	0xbd9d5c70	-0.07683647
97	0xbe84f9ae	-0.2597174
98	0xbde21913	-0.11039939
99	0xbe1a0802	-0.15042117
100	0xbdec4705	-0.115369834
101	0x3e811a1c	0.25215232
102	0xbd26ce40	-0.04072404
103	0xbe14ca91	-0.14530398
104	0xbd87a7a1	-0.066237696
105	0x3e4f1508	0.20222867
106	0xbdad6b24	-0.08467701
107	0x3dffe9c6	0.124957606
108	0x3e36fd1a	0.17869988
109	0xbe1925e8	-0.14955866
110	0xbce62be0	-0.028097093
111	0xbde4ffc5	-0.11181597
112	0xbe211834	-0.15731889
113	0x3d3f28a9	0.046669636
114	0x3c757097	0.014980457
115	0x3e2e7bd8	0.1703943
116	0xbd6ddc08	-0.058071166
117	0x3e8827d0	0.26592875
118	0x3e82eb51	0.25570157
119	0x3e31fcef	0.17381643
120	0xbe19d653	-0.15023164
121	0xbe80af7d	-0.25133887
122	0xbe834c94	-0.25644362
123	0xbd362446	-0.044468187
124	0xbe23d409	-0.15998854
125	0x3e6f02d1	0.23340918
126	0xbe037ddc	-0.1284098
127	0x3e83cd33	0.25742492
128	0xbd00e258	-0.03146586
129	0xbd1d22d5	-0.038363297
130	0x3e30025f	0.17188405
131	0xbe958762	-0.2920485
132	0xbe77fc08	-0.24217236
133	0xbe5803f6	-0.21095261
134	0x3ea1c5c4	0.31596196
135	0x3d15d071	0.03657574
136	0xbe8f56a9	-0.27995804
137	0xbdceb3b1	-0.10092867
138	0x3e9a2272	0.30104405
139	0x3d2a20de	0.04153525
140	0x3e9438ee	0.28949684
141	0x3e23671b	0.159573
142	0x3de443ec	0.111457676
143	0x3bd0fe7c	0.006377993
144	0x3df93f24	0.12170246
145	0xbd66fbb8	-0.0563924
146	0xbe12a7cb	-0.1432182
147	0x3e514b3b	0.20438854
148	0xbe85a22d	-0.26100293
149	0x3d8f5476	0.069985315
150	0xbe9ef768	-0.3104813
151	0xbca3b597	-0.01998405
152	0x3d88eb44	0.06685498
153	0x3e5a8cf5	0.21342833
154	0xbe811cb5	-0.25217214
155	0x3e61d1f9	0.22052754
156	0xbe48543d	-0.19563384
157	0xbe00c336	-0.12574467
158	0x3e83f2dd	0.25771227
159	0xbe7fcea6	-0.24981174
160	0x3d618b07	0.055064227
161	0xbe96f6af	-0.2948508
162	0xbea1e88d	-0.31622735
163	0xbe9575bb	-0.29191384
164	0xbe9cd944	-0.3063451
165	0xbe6cc0bc	-0.23120397
166	0x3d397648	0.045278817
167	0x3e8c535b	0.27407345
168	0x3e70ccf0	0.23515677
169	0xbe291995	-0.16513665
170	0x3e08e692	0.13369206
171	0xbe219961	-0.15781166
172	0x3e21d2a8	0.15803015
173	0xb956a026	-0.0002046829
174	0x3db819bb	0.08989283
175	0xbc40950b	-0.011754285
176	0x3e6c3165	0.23065718
177	0xbd6db08b	-0.058029693
178	0xbd92bfeb	-0.07165512
179	0xbe983edf	-0.29735467
180	0x3ea38095	0.31934038
181	0x3c7d755b	0.015469874
182	0x3e6e5bf3	0.23277263
183	0xbea159ed	-0.3151392
184	0xbd7861ec	-0.06064026
185	0xbe0b5d2a	-0.13609758
186	0x3e7a0f30	0.24419856
187	0xbd88c7fe	-0.066787705
188	0xbd5dc77b	-0.054145318
189	0x3c31b394	0.010846037
190	0x3e1c4af6	0.1526297
191	0x3dcef68e	0.1010562
192	0xbd87e40f	-0.066352956
193	0x3e8be7d6	0.27325314
194	0xbc13835f	-0.009003489
195	0xbd9427d5	-0.0723416
196	0xbd9be118	-0.076112926
197	0x3d0e5419	0.03474817
198	0xbe92d175	-0.28675428
199	0x3e75368f	0.23946594
200	0x3dc985b1	0.09839953
201	0x3e5ff1f2	0.21869639
202	0x3e2fb165	0.17157514
203	0x3e1d21c0	0.15344906
204	0xbddc0ca5	-0.10744599
205	0xbd607503	-0.05479909
206	0xbe0d4ea9	-0.13799538
207	0x3e3e42ab	0.1858012
208	0xbe73d3d3	-0.23811273
209	0x3d72ca13	0.059274744
210	0x3d87c49a	0.06629296
211	0xbdcc17b3	-0.09965458
212	0xbe2f692b	-0.17129962
213	0x3d582939	0.052773688
214	0xbdc336cf	-0.09531938
215	0x3e951b22	0.29122263
216	0xbe947340	-0.2899418
217	0x3e33da85	0.17563827
218	0x3e86fc16	0.263642
219	0xbd6511d2	-0.055925198
220	0xbd5cdce9	-0.053921614
221	0x3e68d451	0.22737242
222	0x3e1fb678	0.1559695
223	0x3dc2397f	0.09483623
224	0xbe44c096	-0.1921409
225	0xbd914794	-0.070937306
226	0x3e6508c9	0.22366633
227	0xbe47685e	-0.19473407
228	0x3e34f254	0.17670566
229	0xbe23b174	-0.15985662
230	0x3e7eac98	0.24870527
231	0x3d3d6129	0.046235237
232	0x3c61f9bd	0.013792452
233	0xbe845330	-0.25844717
234	0xbe2e2aa3	-0.17008452
235	0xbd7dd471	-0.061970178
236	0x3d8c1e8d	0.068417646
237	0x3e883bf6	0.26608247
238	0xbe8970b4	-0.26843798
239	0xbe7e952b	-0.2486159
240	0xbdeb8333	-0.11499634
241	0xbceeae0d	-0.029135728
242	0xbcc7a679	-0.024371373
243	0x3da932dd	0.082616545
244	0xbe76a061	-0.24084617
245	0xbdcc6f8a	-0.09982212
246	0x3d00fc24	0.03149046
247	0xbe1d50cf	-0.15362857
248	0xbe66e604	-0.22548681
249	0x3d5eb341	0.05437017
250	0x3e3535c9	0.17696299
251	0xbdecc962	-0.11561848
252	0x3e0b890d	0.136265
253	0x3e553f3c	0.20824903
254	0xbe3a392d	-0.18185873
255	0xbe35729c	-0.17719501

l4.weight f4 [256, 42]
0	0x3d3422c1	0.043978456
1	0xbe097cf0	-0.13426566
2	0x3d9d9563	0.07694509
3	0x3cffaa15	0.031209031
4	0xbdd4ac66	-0.10384445
5	0x3d891bb1	0.06694735
6	0xbcd4e643	-0.025988704
7	0xbdcca2a5	-0.099919595
8	0x3de5f898	0.11229056
9	0x3bd2d462	0.0064340094
10	0xbd7ca944	-0.06168486
11	0xbe1cd731	-0.15316464
12	0x3b539390	0.0032284
13	0xbe0e885e	-0.13919207
14	0xbbe9941a	-0.007128251
15	0x3d454615	0.04816254
16	0xbd88b32c	-0.06674799
17	0xbd88978d	-0.06669531
18	0x3c1b9d59	0.009497964
19	0x3e13274e	0.14370462
20	0x3d875035	0.06607095
21	0x3d494d3b	0.04914592
22	0xbdb731ec	-0.08945069
23	0x3c6a7ac9	0.014311501
24	0x3e146ad3	0.14493875
25	0xbd6dc67a	-0.05805061
26	0x3d13506f	0.03596538
27	0x3dd8357b	0.105570756
28	0x3d682b8d	0.05668216
29	0x3cf65b37	0.030072792
30	0xbdeadbb7	-0.114676885
31	0x3d2a72b7	0.041613307
32	0xbda0eb7c	-0.07857415
33	0x3d05cd3e	0.032666437
34	0x3dcad865	0.09904555
35	0xbd681c41	-0.05666757
36	0x3dfcc98c	0.123431295
37	0x3decd350	0.11563742
38	0x3d7cd268	0.061724097
39	0x3dc50c1a	0.09621449
40	0xbdd35f9a	-0.10320969
41	0x3dd71c46	0.105034396
42	0xbd74f3b0	-0.05980271
43	0x3e18d0df	0.14923428
44	0x3d5f4f4b	0.05451898
45	0x3cb9a39f	0.022661028
46	0x3dbdb15e	0.09262346
47	0x3c2ca4f4	0.010537375
48	0xbd35c677	-0.044378724
49	0x3d7b5ee4	0.06136979
50	0xbda83707	-0.08213621
51	0xbd0f9b82	-0.035060413
52	0xbe28f081	-0.16497995
53	0x3d9443c7	0.0723949
54	0xbcea0318	-0.028565928
55	0x3b8b3c41	0.004249126
56	0x3d5e3414	0.054248884
57	0x3d9a4941	0.07533503
58	0x3daf1ec7	0.08550792
59	0xbd1d28a2	-0.03836883
60	0x3d5b933a	0.053607203
61	0x3d550d7e	0.05201482
62	0xbd854f3c	-0.065092534
63	0x3df85d04	0.12127116
64	0xbc65a594	-0.014016528
65	0x3cfce471	0.030870648
66	0x3e0e48e5	0.13894995
67	0x3db6fefd	0.08935354
68	0xbe4216e7	-0.18954049
69	0x3d970f84	0.07376006
70	0xbc9bad47	-0.019003524
71	0xbd6bfd01	-0.05761433
72	0x3d3206bb	0.04346345
73	0xbdcf92c7	-0.101354174
74	0x3dca504c	0.09878597
75	0xbde6a8db	-0.112626754
76	0xbd765400	-0.060138702
77	0x3d285d5d	0.041104663
78	0x3c8f973a	0.017528165
79	0x3e043633	0.129113
80	0xbda38360	-0.07984042
81	0x3dd7895e	0.105242476
82	0x3d052503	0.032506
83	0xbdce01bf	-0.10058927
84	0xbcaceffc	-0.021110527
85	0xbd3d2bd7	-0.046184387
86	0xbe05a9dc	-0.13053077
87	0xbddf8f51	-0.10916007
88	0xbd9a2b88	-0.07527834
89	0x3d0bcd98	0.034131616
90	0xbd33abc4	-0.04386498
91	0x3d0763b4	0.03305407
92	0xbe2d4416	-0.16920504
93	0xbd446c4c	-0.047954842
94	0xbc4e282b	-0.012582819
95	0x3da9a951	0.08284248
96	0xbbf63eef	-0.0075148265
97	0xbe5532ea	-0.20820203
98	0x3d9f5aa5	0.07780961
99	0x3d12093c	0.035653338
100	0x3d677061	0.056503657
101	0x3df18f47	0.11794906
102	0x3c5235c2	0.0128302
103	0x3e1cfbe1	0.15330459
104	0x3dc3331d	0.095312335
105	0x3e037655	0.12838109
106	0xbce856d0	-0.028361708
107	0xbd65c115	-0.05609234
108	0xbcd40c27	-0.025884701
109	0x3dabe9f1	0.0839423
110	0xbe0a9c5f	-0.13536213
111	0x3e036ad7	0.12833725
112	0xbcf525fe	-0.029925343
113	0x3d2236ae	0.039602928
114	0x3c972457	0.018449945
115	0xbbad0c30	-0.005280994
116	0x3cad3faf	0.02114853
117	0xbe0b1ac4	-0.13584429
118	0xbc877cc6	-0.016538989
119	0xbe17809a	-0.14795151
120	0xbdfbb4cb	-0.12290343
121	0x3e0065f0	0.12538886
122	0x3dc76f04	0.097379714
123	0x3bf46829	0.007458706
124	0x3db92634	0.0904049
125	0xbbd1e8d2	-0.006405928
126	0xbc4d5dc7	-0.012534565
127	0x3c95ff96	0.01831035
128	0x3da51f51	0.08062614
129	0xbdca453f	-0.09876489
130	0x3dc05412	0.09391035
131	0x3e29b0cf	0.16571353
132	0x3e2ef667	0.17086183
133	0x3c658a14	0.014009971
134	0x3e0117e4	0.1260677
135	0xbcae2089	-0.021255748
136	0x3dc36c1a	0.09542103
137	0x3e508e5e	0.20366809
138	0x3b6780f6	0.003532467
139	0x3e096082	0.13415721
140	0xbb7112a0	-0.0036784783
141	0x3da5f8af	0.08104073
142	0x3db645b6	0.08900015
143	0x3e032304	0.12806326
144	0xbd86ee83	-0.06588461
145	0xbd1c0cf2	-0.038098283
146	0xbd1119d5	-0.035425026
147	0xbc875983	-0.016522175
148	0xbd9ae9b8	-0.075641096
149	0x3dee27a8	0.116286576
150	0x3de792fc	0.11307332
151	0xbc3868fc	-0.011255499
152	0xbd1be199	-0.038056944
153	0x3deda030	0.11602819
154	0xbe0b8cd6	-0.13627943
155	0x3d1f0f1d	0.038832773
156	0xbd86786c	-0.065659374
157	0x3e4c0760	0.19924688
158	0x3dec697b	0.11543556
159	0xbdebb011	-0.115081914
160	0xbb5c2083	-0.0033588714
161	0xbe1349d3	-0.1438363
162	0xbc8b06ff	-0.01697111
163	0x3cc02a3a	0.023457635
164	0x3dfc02f7	0.12305253
165	0x3def0475	0.11670772
166	0x3dbcb052	0.09213318
167	0x3e0a63fa	0.135147
168	0x3d207073	0.03916974
169	0x3dcb08e7	0.09913807
170	0x3d4192d0	0.047259152
171	0x3e15634e	0.14588663
172	0x3df4844b	0.119392954
173	0x3e0f35dd	0.13985391
174	0x3d5f6a06	0.05454447
175	0xbe03bd51	-0.12865187
176	0xbd9a7cd1	-0.07543338
177	0xbd8deff4	-0.06930533
178	0xbc8fb63e	-0.017542955
179	0xbdc3f019	-0.09567279
180	0x3e14ec4b	0.14543264
181	0xbe1a5420	-0.15071154
182	0xbe141c3c	-0.14463896
183	0xbdbf89e7	-0.09352475
184	0x3d8c2d61	0.06844593
185	0x3ded6c15	0.11592881
186	0xbad4dc8a	-0.0016240042
187	0x3e08b55b	0.13350432
188	0xbd99c9f1	-0.075092204
189	0xbb7ac05b	-0.0038261625
190	0xbe092af8	-0.13395298
191	0x3d69c063	0.05706824
192	0x3ca7beb4	0.020476677
193	0x3e1a0e2a	0.15044466
194	0x3dbaf9e5	0.09129695
195	0x3cbb040d	0.02282908
196	0x3e14f7c7	0.14547645
197	0x3d60fb28	0.05492702
198	0xbd592c1e	-0.05302059
199	0xbc1f9dc4	-0.009742204
200	0x3ddadc0a	0.106865
201	0x3d9a9757	0.07548397
202	0xbe071e7c	-0.13195223
203	0xbcee06e6	-0.029056024
204	0xbdb78886	-0.08961587
205	0xbdfd6448	-0.12372643
206	0xbdc7c20d	-0.09753809
207	0x3de6173c	0.112349
208	0x3df6efa0	0.120574236
209	0xbd485ca7	-0.048916485
210	0xbe06a09a	-0.13147202
211	0xbe153c88	-0.14573872
212	0x3c09ba16	0.008406183
213	0xbdc3a516	-0.09552972
214	0x3dfdea76	0.123982355
215	0x3d842251	0.06451858
216	0xbdac5439	-0.08414502
217	0xbd085c44	-0.033291116
218	0x3d9a8544	0.0754495
219	0xbd55b35e	-0.05217301
220	0xbd89fc3f	-0.06737565
221	0x3e39fe42	0.18163398
222	0x3db54df5	0.0885276
223	0x3e430219	0.19043769
224	0x3dd8751c	0.10569212
225	0x3d25aab9	0.040446017
226	0x3de9dadc	0.11418697
227	0x3cf803b4	0.030275203
228	0x3dffde73	0.12493601
229	0xbe106317	-0.141003
230	0x3e1c98fc	0.15292734
231	0x3c1c2234	0.009529639
232	0xbdaa3f23	-0.083128236
233	0xbdace90b	-0.08442887
234	0x3dd80013	0.10546889
235	0x3e1f25f9	0.15541829
236	0x3e0dc09d	0.13843007
237	0x3c55ddc3	0.01305336
238	0x3e0926fe	0.1339378
239	0x3df03886	0.11729531
240	0x3d30090c	0.042977378
241	0x3d7e8a18	0.062143415
242	0x3d54eb01	0.05198193
243	0xbdb29f02	-0.087217346
244	0xbdaf337e	-0.08554743
245	0xbd670f0e	-0.05641084
246	0xbe07ca13	-0.13260679
247	0x3c8eacd7	0.0174164
248	0x3bbb5908	0.0057174005
249	0x3de3d9dc	0.11125538
250	0x3c3677b7	0.011136941
251	0xbd60d55d	-0.05489098
252	0xbdf109a2	-0.117694154
253	0xbdaac099	-0.08337516
254	0xbd84c81f	-0.064834826
255	0x3d179b9d	0.03701364

l4.bias f4 [256]
0	0x3d316212	0.043306418
1	0x3d86a444	0.065743
2	0xbe050669	-0.12990727
3	0x3cfc848b	0.03082492
4	0xbde56a8a	-0.11201961
5	0x3cc35526	0.023844313
6	0x3dc9ea89	0.09859187
7	0x3d9732dc	0.073827475
8	0xbd6f7ffa	-0.058471657
9	0xbb7a8a6f	-0.0038229486
10	0xbd94ee3d	-0.07272003
11	0xbe51d84d	-0.20492668
12	0xbdaea14f	-0.08526861
13	0xbdba2dd9	-0.09090776
14	0xbcc48511	-0.023989232
15	0x3d0fd94e	0.035119347
16	0xbdb6a8ff	-0.08918952
17	0xbe1b59e7	-0.15171014
18	0xbc90e673	-0.017688012
19	0xbc60f811	-0.013731019
20	0x3d44e020	0.048065305
21	0xbd4113f0	-0.047138155
22	0xbdab6bfb	-0.08370205
23	0xbdcc72da	-0.09982844
24	0x3cc1b15f	0.023644147
25	0x3c8574ec	0.016291104
26	0xbc7d15ec	-0.015447121
27	0xbd1984ec	-0.03748028
28	0x3cd64906	0.026157867
29	0xbe39dc09	-0.18150343
30	0x3d11adde	0.035566203
31	0x3c37dcda	0.011222089
32	0xbda5101c	-0.08059713
33	0xbd4150b6	-0.047196113
34	0xbc5164fc	-0.012780424
35	0x3db8ac81	0.090172775
36	0x3c640545	0.013917272
37	0x3e072988	0.13199437
38	0xbd8970bc	-0.067109555
39	0xbd550be5	-0.052013297
40	0xbd47f361	-0.04881609
41	0xbe1a96e7	-0.15096627
42	0xbd806ae8	-0.06270391
43	0xbe2d41a0	-0.16919565
44	0xbdfaeba8	-0.12251979
45	0x3d158f06	0.03651335
46	0xbe17240f	-0.14759849
47	0x3e36e2ef	0.17860006
48	0x3b07ff28	0.002075145
49	0x3dbb0a9c	0.09132883
50	0xbd955d2d	-0.072931625
51	0xbd7e6b50	-0.06211406
52	0xbe206974	-0.15665227
53	0x3cec4728	0.028842524
54	0x3e12fcee	0.14354298
55	0x3e449d44	0.19200617
56	0xbe132510	-0.14369607
57	0xbe037bf8	-0.12840259
58	0xbdbcd66d	-0.09220586
59	0x3dccf318	0.10007304
60	0xbd4c2e5a	-0.04984889
61	0x3de73fba	0.11291452
62	0x3dba76b4	0.09104672
63	0x3c386607	0.011254794
64	0x3d6b92da	0.057513095
65	0x3df3803d	0.11889694
66	0x3dab92de	0.08377622
67	0x3dcb995e	0.09941362
68	0xbdcd5aef	-0.1002711
69	0x3cbcdc69	0.023054319
70	0x3c72ddfe	0.014823435
71	0x3dbb10d1	0.09134067
72	0xbcdfc529	-0.027315693
73	0xbd2254bf	-0.0396316
74	0xbd75b8d1	-0.059990708
75	0xbd245faa	-0.040130295
76	0xbcf399e7	-0.029736472
77	0xbd08c1ab	-0.03338782
78	0xbdc93c56	-0.09825961
79	0x3d89cf7b	0.06729027
80	0xbc684140	-0.014175713
81	0xbcb905d5	-0.022585789
82	0x3e49220a	0.19641891
83	0x3e06b7bf	0.13156031
84	0x3dbf3675	0.09336559
85	0x3d167553	0.036732983
86	0x3e3a3eb9	0.1818799
87	0xbcb55ad3	-0.022138035
88	0x3d783b28	0.06060329
89	0x3e093e91	0.13402773
90	0xbdbc96dc	-0.09208462
91	0xbd375a0a	-0.044763602
92	0x3e3cbfa6	0.18432483
93	0x3c87926a	0.016549308
94	0xbe1622b3	-0.14661674
95	0xbdcc7ba0	-0.09984517
96	0xbe0779a3	-0.13229994
97	0x3dc1a24d	0.094547845
98	0xbc20046d	-0.00976668
99	0x3d14bd44	0.03631331
100	0xbdeb6ce3	-0.11495378
101	0xbd97ea28	-0.07417709
102	0x3dc565e5	0.096385755
103	0x3e15242e	0.14564583
104	0x3ce1d74f	0.027568487
105	0xbe48d8ff	-0.19614027
106	0xba86a3ab	-0.0010272166
107	0x3d9086f8	0.07056993
108	0x3d7664a6	0.06015458
109	0xbc846528	-0.016161516
110	0x3db5c9ec	0.08876404
111	0x3e0fa620	0.14028215
112	0xbdc559df	-0.09636282
113	0x3ceeb6f3	0.029139971
114	0x3d0dd87c	0.034630284
115	0xbdf0b98d	-0.11754141
116	0x3d9b50e1	0.07583786
117	0xbdd4fa1e	-0.103992686
118	0x3c2b1b19	0.010443472
119	0xbb696733	-0.003561449
120	0xbde41ab7	-0.11137908
121	0xbda6e395	-0.081488766
122	0xbc0bb01d	-0.008525875
123	0xbe039f9a	-0.12853852
124	0xbd5950d3	-0.053055596
125	0xbe0dbc09	-0.13841261
126	0x3e0ea382	0.13929561
127	0xbdf45b4e	-0.119314775
128	0xbd317062	-0.043320067
129	0x3e1ab0ae	0.1510646
130	0x3d523690	0.051321566
131	0xbca91022	-0.020637576
132	0x3c1787b6	0.009248665
133	0x3d40ec99	0.047100637
134	0xbdd6604b	-0.10467585
135	0x3e4dd854	0.20102054
136	0xbc480cab	-0.0122100515
137	0x3c71a719	0.014749312
138	0xbdf6b385	-0.120459594
139	0x3db8d077	0.090241365
140	0x3d9f2971	0.07771576
141	0x3e217a6c	0.15769356
142	0x3daa50d2	0.083161965
143	0xbe0bc689	-0.13649954
144	0xbe0d99df	-0.13828228
145	0x3dbfb3c5	0.0936046
146	0x3c58824e	0.013214661
147	0x3e1c42dd	0.15259881
148	0xbe06e392	-0.13172749
149	0xbde9dd42	-0.11419155
150	0xbdbde26d	-0.09271703
151	0xbc674b7f	-0.014117121
152	0xbe0aabf9	-0.13542165
153	0xbdc2535b	-0.09488555
154	0x3d621ab8	0.055201262
155	0x3dd69c68	0.10479051
156	0xbd05df11	-0.032683436
157	0x3dd08c9d	0.1018307
158	0xbd92d711	-0.07169927
159	0x3e579fc5	0.21057041
160	0xbd005328	-0.031329304
161	0xbe160b46	-0.14652738
162	0x3dbd727d	0.092503525
163	0x3e1cc69f	0.15310143
164	0x3dabc6be	0.083875164
165	0xbaeffccf	-0.0018309596
166	0x3ccd88a2	0.025089566
167	0x3c0e463a	0.0086837355
168	0x3e4f09ba	0.20218554
169	0xbe1dc799	-0.15408172
170	0xbd00158c	-0.03127055
171	0xbd1b1d16	-0.037869535
172	0x3dcb2d8b	0.09920796
173	0x3d0679ad	0.032830883
174	0xbd9e1d88	-0.077204764
175	0x3d900714	0.070326
176	0x3e2e8c6e	0.17045757
177	0xbd88bc7f	-0.06676578
178	0x3d8c84b6	0.0686125
179	0xbc87fb60	-0.016599357
180	0xbdf59053	-0.11990418
181	0xbb318d2b	-0.00270922
182	0xbd8cf06b	-0.068817936
183	0x3dc7f18a	0.09762867
184	0x3d6944a7	0.056950238
185	0xbd3a64b9	-0.045506213
186	0x3df157cc	0.11784324
187	0xbddb4904	-0.10707286
188	0xbd8e21d0	-0.06940043
189	0x3e0dc9a7	0.13846456
190	0x3dc2d8c0	0.09513998
191	0xbdbe78e5	-0.093004026
192	0xbe19a22f	-0.15003274
193	0xbdd572ee	-0.10422312
194	0x3e1a07f5	0.15042098
195	0x3debeb88	0.115195334
196	0xbe021d24	-0.12706429
197	0x3ccaa6b4	0.024737693
198	0x3d2786c8	0.04090002
199	0x3e15a182	0.14612392
200	0x3e1e70fc	0.15472788
201	0xbdb29d08	-0.087213576
202	0x3d0518fa	0.032494523
203	0x3d8d704c	0.069061846
204	0xbd485ea4	-0.04891838
205	0xbd5658af	-0.05233067
206	0x3d3cdcb3	0.046108913
207	0xbc0eb1ee	-0.008709414
208	0xbe324ef9	-0.17412938
209	0x3e4eff52	0.20214584
210	0xbcaeaa27	-0.02132137
211	0x3de811cd	0.1133152
212	0xbd0f02df	-0.034914847
213	0xbdca737b	-0.098853074
214	0x3cca18ea	0.024670083
215	0x3d6cc917	0.05780896
216	0x3e403c31	0.18772961
217	0xbe1700bc	-0.14746374
218	0x3d4fce6b	0.050733965
219	0xbe00408f	-0.12524627
220	0x3c7b1f68	0.015327312
221	0xbd089f98	-0.033355325
222	0x3ceb3b82	0.028714899
223	0xbde85744	-0.113447696
224	0xbd161343	-0.036639463
225	0x3d9215da	0.07133074
226	0xbde37564	-0.11106375
227	0xbc1a019a	-0.009399796
228	0xbd2a68fe	-0.041604035
229	0xbdc7e40b	-0.097602926
230	0xbe17f27f	-0.14838599
231	0x3d0b450b	0.03400139
232	0xbe4f0f4b	-0.20220678
233	0xbbe3c024	-0.006950395
234	0x3d82b384	0.06381896
235	0x3dc0c959	0.09413404
236	0x3dadeac6	0.08492045
237	0x3cc6f29a	0.024285603
238	0xbe0ae2f1	-0.13563134
239	0x3dee182e	0.11625706
240	0x3c1b661b	0.009484793
241	0x3e219e43	0.15783028
242	0x3ca4430f	0.020051507
243	0x3bc3a9b8	0.00597116
244	0xbdf65ee6	-0.12029819
245	0x3d54cf18	0.051955312
246	0x3d377b2d	0.044795204
247	0xbcf24705	-0.02957488
248	0xbc815f3d	-0.015792483
249	0xbdd2e856	-0.10298221
250	0xbc7a9ac9	-0.015295693
251	0x3d990d9d	0.074733
252	0xbe0aa46d	-0.13539286
253	0xbd153815	-0.036430437
254	0xbe0061c9	-0.12537302
255	0xbd020a01	-0.03174782
